{"class_name": "Model", "backend": "tensorflow", "config": {"output_layers": [["activation_1", 0, 0]], "input_layers": [["att_nbhd_volume_input_time_1_1", 0, 0], ["att_nbhd_volume_input_time_2_1", 0, 0], ["att_nbhd_volume_input_time_3_1", 0, 0], ["att_nbhd_volume_input_time_1_2", 0, 0], ["att_nbhd_volume_input_time_2_2", 0, 0], ["att_nbhd_volume_input_time_3_2", 0, 0], ["att_nbhd_volume_input_time_1_3", 0, 0], ["att_nbhd_volume_input_time_2_3", 0, 0], ["att_nbhd_volume_input_time_3_3", 0, 0], ["att_flow_volume_input_time_1_1", 0, 0], ["att_flow_volume_input_time_2_1", 0, 0], ["att_flow_volume_input_time_3_1", 0, 0], ["att_flow_volume_input_time_1_2", 0, 0], ["att_flow_volume_input_time_2_2", 0, 0], ["att_flow_volume_input_time_3_2", 0, 0], ["att_flow_volume_input_time_1_3", 0, 0], ["att_flow_volume_input_time_2_3", 0, 0], ["att_flow_volume_input_time_3_3", 0, 0], ["att_lstm_input_1", 0, 0], ["att_lstm_input_2", 0, 0], ["att_lstm_input_3", 0, 0], ["nbhd_volume_input_time_1", 0, 0], ["nbhd_volume_input_time_2", 0, 0], ["nbhd_volume_input_time_3", 0, 0], ["nbhd_volume_input_time_4", 0, 0], ["nbhd_volume_input_time_5", 0, 0], ["nbhd_volume_input_time_6", 0, 0], ["nbhd_volume_input_time_7", 0, 0], ["flow_volume_input_time_1", 0, 0], ["flow_volume_input_time_2", 0, 0], ["flow_volume_input_time_3", 0, 0], ["flow_volume_input_time_4", 0, 0], ["flow_volume_input_time_5", 0, 0], ["flow_volume_input_time_6", 0, 0], ["flow_volume_input_time_7", 0, 0], ["lstm_input", 0, 0]], "layers": [{"inbound_nodes": [], "class_name": "InputLayer", "name": "att_flow_volume_input_time_1_1", "config": {"batch_input_shape": [null, 7, 7, 4], "name": "att_flow_volume_input_time_1_1", "sparse": false, "dtype": "float32"}}, {"inbound_nodes": [], "class_name": "InputLayer", "name": "att_flow_volume_input_time_2_1", "config": {"batch_input_shape": [null, 7, 7, 4], "name": "att_flow_volume_input_time_2_1", "sparse": false, "dtype": "float32"}}, {"inbound_nodes": [], "class_name": "InputLayer", "name": "att_flow_volume_input_time_3_1", "config": {"batch_input_shape": [null, 7, 7, 4], "name": "att_flow_volume_input_time_3_1", "sparse": false, "dtype": "float32"}}, {"inbound_nodes": [], "class_name": "InputLayer", "name": "flow_volume_input_time_1", "config": {"batch_input_shape": [null, 7, 7, 4], "name": "flow_volume_input_time_1", "sparse": false, "dtype": "float32"}}, {"inbound_nodes": [], "class_name": "InputLayer", "name": "flow_volume_input_time_2", "config": {"batch_input_shape": [null, 7, 7, 4], "name": "flow_volume_input_time_2", "sparse": false, "dtype": "float32"}}, {"inbound_nodes": [], "class_name": "InputLayer", "name": "flow_volume_input_time_3", "config": {"batch_input_shape": [null, 7, 7, 4], "name": "flow_volume_input_time_3", "sparse": false, "dtype": "float32"}}, {"inbound_nodes": [], "class_name": "InputLayer", "name": "flow_volume_input_time_4", "config": {"batch_input_shape": [null, 7, 7, 4], "name": "flow_volume_input_time_4", "sparse": false, "dtype": "float32"}}, {"inbound_nodes": [], "class_name": "InputLayer", "name": "flow_volume_input_time_5", "config": {"batch_input_shape": [null, 7, 7, 4], "name": "flow_volume_input_time_5", "sparse": false, "dtype": "float32"}}, {"inbound_nodes": [], "class_name": "InputLayer", "name": "flow_volume_input_time_6", "config": {"batch_input_shape": [null, 7, 7, 4], "name": "flow_volume_input_time_6", "sparse": false, "dtype": "float32"}}, {"inbound_nodes": [], "class_name": "InputLayer", "name": "flow_volume_input_time_7", "config": {"batch_input_shape": [null, 7, 7, 4], "name": "flow_volume_input_time_7", "sparse": false, "dtype": "float32"}}, {"inbound_nodes": [], "class_name": "InputLayer", "name": "att_flow_volume_input_time_1_2", "config": {"batch_input_shape": [null, 7, 7, 4], "name": "att_flow_volume_input_time_1_2", "sparse": false, "dtype": "float32"}}, {"inbound_nodes": [], "class_name": "InputLayer", "name": "att_flow_volume_input_time_2_2", "config": {"batch_input_shape": [null, 7, 7, 4], "name": "att_flow_volume_input_time_2_2", "sparse": false, "dtype": "float32"}}, {"inbound_nodes": [], "class_name": "InputLayer", "name": "att_flow_volume_input_time_3_2", "config": {"batch_input_shape": [null, 7, 7, 4], "name": "att_flow_volume_input_time_3_2", "sparse": false, "dtype": "float32"}}, {"inbound_nodes": [], "class_name": "InputLayer", "name": "att_flow_volume_input_time_1_3", "config": {"batch_input_shape": [null, 7, 7, 4], "name": "att_flow_volume_input_time_1_3", "sparse": false, "dtype": "float32"}}, {"inbound_nodes": [], "class_name": "InputLayer", "name": "att_flow_volume_input_time_2_3", "config": {"batch_input_shape": [null, 7, 7, 4], "name": "att_flow_volume_input_time_2_3", "sparse": false, "dtype": "float32"}}, {"inbound_nodes": [], "class_name": "InputLayer", "name": "att_flow_volume_input_time_3_3", "config": {"batch_input_shape": [null, 7, 7, 4], "name": "att_flow_volume_input_time_3_3", "sparse": false, "dtype": "float32"}}, {"inbound_nodes": [], "class_name": "InputLayer", "name": "att_nbhd_volume_input_time_1_1", "config": {"batch_input_shape": [null, 7, 7, 2], "name": "att_nbhd_volume_input_time_1_1", "sparse": false, "dtype": "float32"}}, {"inbound_nodes": [[["att_flow_volume_input_time_1_1", 0, 0, {}]]], "class_name": "Conv2D", "name": "att_flow_convs_time0_1_1", "config": {"trainable": true, "dilation_rate": [1, 1], "activation": "linear", "kernel_constraint": null, "bias_regularizer": null, "data_format": "channels_last", "kernel_initializer": {"class_name": "VarianceScaling", "config": {"mode": "fan_avg", "scale": 1.0, "distribution": "uniform", "seed": null}}, "kernel_regularizer": null, "use_bias": true, "bias_initializer": {"class_name": "Zeros", "config": {}}, "name": "att_flow_convs_time0_1_1", "bias_constraint": null, "filters": 64, "activity_regularizer": null, "strides": [1, 1], "kernel_size": [3, 3], "padding": "same"}}, {"inbound_nodes": [], "class_name": "InputLayer", "name": "att_nbhd_volume_input_time_2_1", "config": {"batch_input_shape": [null, 7, 7, 2], "name": "att_nbhd_volume_input_time_2_1", "sparse": false, "dtype": "float32"}}, {"inbound_nodes": [[["att_flow_volume_input_time_2_1", 0, 0, {}]]], "class_name": "Conv2D", "name": "att_flow_convs_time0_1_2", "config": {"trainable": true, "dilation_rate": [1, 1], "activation": "linear", "kernel_constraint": null, "bias_regularizer": null, "data_format": "channels_last", "kernel_initializer": {"class_name": "VarianceScaling", "config": {"mode": "fan_avg", "scale": 1.0, "distribution": "uniform", "seed": null}}, "kernel_regularizer": null, "use_bias": true, "bias_initializer": {"class_name": "Zeros", "config": {}}, "name": "att_flow_convs_time0_1_2", "bias_constraint": null, "filters": 64, "activity_regularizer": null, "strides": [1, 1], "kernel_size": [3, 3], "padding": "same"}}, {"inbound_nodes": [], "class_name": "InputLayer", "name": "att_nbhd_volume_input_time_3_1", "config": {"batch_input_shape": [null, 7, 7, 2], "name": "att_nbhd_volume_input_time_3_1", "sparse": false, "dtype": "float32"}}, {"inbound_nodes": [[["att_flow_volume_input_time_3_1", 0, 0, {}]]], "class_name": "Conv2D", "name": "att_flow_convs_time0_1_3", "config": {"trainable": true, "dilation_rate": [1, 1], "activation": "linear", "kernel_constraint": null, "bias_regularizer": null, "data_format": "channels_last", "kernel_initializer": {"class_name": "VarianceScaling", "config": {"mode": "fan_avg", "scale": 1.0, "distribution": "uniform", "seed": null}}, "kernel_regularizer": null, "use_bias": true, "bias_initializer": {"class_name": "Zeros", "config": {}}, "name": "att_flow_convs_time0_1_3", "bias_constraint": null, "filters": 64, "activity_regularizer": null, "strides": [1, 1], "kernel_size": [3, 3], "padding": "same"}}, {"inbound_nodes": [], "class_name": "InputLayer", "name": "nbhd_volume_input_time_1", "config": {"batch_input_shape": [null, 7, 7, 2], "name": "nbhd_volume_input_time_1", "sparse": false, "dtype": "float32"}}, {"inbound_nodes": [[["flow_volume_input_time_1", 0, 0, {}]]], "class_name": "Conv2D", "name": "flow_convs_time0_1", "config": {"trainable": true, "dilation_rate": [1, 1], "activation": "linear", "kernel_constraint": null, "bias_regularizer": null, "data_format": "channels_last", "kernel_initializer": {"class_name": "VarianceScaling", "config": {"mode": "fan_avg", "scale": 1.0, "distribution": "uniform", "seed": null}}, "kernel_regularizer": null, "use_bias": true, "bias_initializer": {"class_name": "Zeros", "config": {}}, "name": "flow_convs_time0_1", "bias_constraint": null, "filters": 64, "activity_regularizer": null, "strides": [1, 1], "kernel_size": [3, 3], "padding": "same"}}, {"inbound_nodes": [], "class_name": "InputLayer", "name": "nbhd_volume_input_time_2", "config": {"batch_input_shape": [null, 7, 7, 2], "name": "nbhd_volume_input_time_2", "sparse": false, "dtype": "float32"}}, {"inbound_nodes": [[["flow_volume_input_time_2", 0, 0, {}]]], "class_name": "Conv2D", "name": "flow_convs_time0_2", "config": {"trainable": true, "dilation_rate": [1, 1], "activation": "linear", "kernel_constraint": null, "bias_regularizer": null, "data_format": "channels_last", "kernel_initializer": {"class_name": "VarianceScaling", "config": {"mode": "fan_avg", "scale": 1.0, "distribution": "uniform", "seed": null}}, "kernel_regularizer": null, "use_bias": true, "bias_initializer": {"class_name": "Zeros", "config": {}}, "name": "flow_convs_time0_2", "bias_constraint": null, "filters": 64, "activity_regularizer": null, "strides": [1, 1], "kernel_size": [3, 3], "padding": "same"}}, {"inbound_nodes": [], "class_name": "InputLayer", "name": "nbhd_volume_input_time_3", "config": {"batch_input_shape": [null, 7, 7, 2], "name": "nbhd_volume_input_time_3", "sparse": false, "dtype": "float32"}}, {"inbound_nodes": [[["flow_volume_input_time_3", 0, 0, {}]]], "class_name": "Conv2D", "name": "flow_convs_time0_3", "config": {"trainable": true, "dilation_rate": [1, 1], "activation": "linear", "kernel_constraint": null, "bias_regularizer": null, "data_format": "channels_last", "kernel_initializer": {"class_name": "VarianceScaling", "config": {"mode": "fan_avg", "scale": 1.0, "distribution": "uniform", "seed": null}}, "kernel_regularizer": null, "use_bias": true, "bias_initializer": {"class_name": "Zeros", "config": {}}, "name": "flow_convs_time0_3", "bias_constraint": null, "filters": 64, "activity_regularizer": null, "strides": [1, 1], "kernel_size": [3, 3], "padding": "same"}}, {"inbound_nodes": [], "class_name": "InputLayer", "name": "nbhd_volume_input_time_4", "config": {"batch_input_shape": [null, 7, 7, 2], "name": "nbhd_volume_input_time_4", "sparse": false, "dtype": "float32"}}, {"inbound_nodes": [[["flow_volume_input_time_4", 0, 0, {}]]], "class_name": "Conv2D", "name": "flow_convs_time0_4", "config": {"trainable": true, "dilation_rate": [1, 1], "activation": "linear", "kernel_constraint": null, "bias_regularizer": null, "data_format": "channels_last", "kernel_initializer": {"class_name": "VarianceScaling", "config": {"mode": "fan_avg", "scale": 1.0, "distribution": "uniform", "seed": null}}, "kernel_regularizer": null, "use_bias": true, "bias_initializer": {"class_name": "Zeros", "config": {}}, "name": "flow_convs_time0_4", "bias_constraint": null, "filters": 64, "activity_regularizer": null, "strides": [1, 1], "kernel_size": [3, 3], "padding": "same"}}, {"inbound_nodes": [], "class_name": "InputLayer", "name": "nbhd_volume_input_time_5", "config": {"batch_input_shape": [null, 7, 7, 2], "name": "nbhd_volume_input_time_5", "sparse": false, "dtype": "float32"}}, {"inbound_nodes": [[["flow_volume_input_time_5", 0, 0, {}]]], "class_name": "Conv2D", "name": "flow_convs_time0_5", "config": {"trainable": true, "dilation_rate": [1, 1], "activation": "linear", "kernel_constraint": null, "bias_regularizer": null, "data_format": "channels_last", "kernel_initializer": {"class_name": "VarianceScaling", "config": {"mode": "fan_avg", "scale": 1.0, "distribution": "uniform", "seed": null}}, "kernel_regularizer": null, "use_bias": true, "bias_initializer": {"class_name": "Zeros", "config": {}}, "name": "flow_convs_time0_5", "bias_constraint": null, "filters": 64, "activity_regularizer": null, "strides": [1, 1], "kernel_size": [3, 3], "padding": "same"}}, {"inbound_nodes": [], "class_name": "InputLayer", "name": "nbhd_volume_input_time_6", "config": {"batch_input_shape": [null, 7, 7, 2], "name": "nbhd_volume_input_time_6", "sparse": false, "dtype": "float32"}}, {"inbound_nodes": [[["flow_volume_input_time_6", 0, 0, {}]]], "class_name": "Conv2D", "name": "flow_convs_time0_6", "config": {"trainable": true, "dilation_rate": [1, 1], "activation": "linear", "kernel_constraint": null, "bias_regularizer": null, "data_format": "channels_last", "kernel_initializer": {"class_name": "VarianceScaling", "config": {"mode": "fan_avg", "scale": 1.0, "distribution": "uniform", "seed": null}}, "kernel_regularizer": null, "use_bias": true, "bias_initializer": {"class_name": "Zeros", "config": {}}, "name": "flow_convs_time0_6", "bias_constraint": null, "filters": 64, "activity_regularizer": null, "strides": [1, 1], "kernel_size": [3, 3], "padding": "same"}}, {"inbound_nodes": [], "class_name": "InputLayer", "name": "nbhd_volume_input_time_7", "config": {"batch_input_shape": [null, 7, 7, 2], "name": "nbhd_volume_input_time_7", "sparse": false, "dtype": "float32"}}, {"inbound_nodes": [[["flow_volume_input_time_7", 0, 0, {}]]], "class_name": "Conv2D", "name": "flow_convs_time0_7", "config": {"trainable": true, "dilation_rate": [1, 1], "activation": "linear", "kernel_constraint": null, "bias_regularizer": null, "data_format": "channels_last", "kernel_initializer": {"class_name": "VarianceScaling", "config": {"mode": "fan_avg", "scale": 1.0, "distribution": "uniform", "seed": null}}, "kernel_regularizer": null, "use_bias": true, "bias_initializer": {"class_name": "Zeros", "config": {}}, "name": "flow_convs_time0_7", "bias_constraint": null, "filters": 64, "activity_regularizer": null, "strides": [1, 1], "kernel_size": [3, 3], "padding": "same"}}, {"inbound_nodes": [], "class_name": "InputLayer", "name": "att_nbhd_volume_input_time_1_2", "config": {"batch_input_shape": [null, 7, 7, 2], "name": "att_nbhd_volume_input_time_1_2", "sparse": false, "dtype": "float32"}}, {"inbound_nodes": [[["att_flow_volume_input_time_1_2", 0, 0, {}]]], "class_name": "Conv2D", "name": "att_flow_convs_time0_2_1", "config": {"trainable": true, "dilation_rate": [1, 1], "activation": "linear", "kernel_constraint": null, "bias_regularizer": null, "data_format": "channels_last", "kernel_initializer": {"class_name": "VarianceScaling", "config": {"mode": "fan_avg", "scale": 1.0, "distribution": "uniform", "seed": null}}, "kernel_regularizer": null, "use_bias": true, "bias_initializer": {"class_name": "Zeros", "config": {}}, "name": "att_flow_convs_time0_2_1", "bias_constraint": null, "filters": 64, "activity_regularizer": null, "strides": [1, 1], "kernel_size": [3, 3], "padding": "same"}}, {"inbound_nodes": [], "class_name": "InputLayer", "name": "att_nbhd_volume_input_time_2_2", "config": {"batch_input_shape": [null, 7, 7, 2], "name": "att_nbhd_volume_input_time_2_2", "sparse": false, "dtype": "float32"}}, {"inbound_nodes": [[["att_flow_volume_input_time_2_2", 0, 0, {}]]], "class_name": "Conv2D", "name": "att_flow_convs_time0_2_2", "config": {"trainable": true, "dilation_rate": [1, 1], "activation": "linear", "kernel_constraint": null, "bias_regularizer": null, "data_format": "channels_last", "kernel_initializer": {"class_name": "VarianceScaling", "config": {"mode": "fan_avg", "scale": 1.0, "distribution": "uniform", "seed": null}}, "kernel_regularizer": null, "use_bias": true, "bias_initializer": {"class_name": "Zeros", "config": {}}, "name": "att_flow_convs_time0_2_2", "bias_constraint": null, "filters": 64, "activity_regularizer": null, "strides": [1, 1], "kernel_size": [3, 3], "padding": "same"}}, {"inbound_nodes": [], "class_name": "InputLayer", "name": "att_nbhd_volume_input_time_3_2", "config": {"batch_input_shape": [null, 7, 7, 2], "name": "att_nbhd_volume_input_time_3_2", "sparse": false, "dtype": "float32"}}, {"inbound_nodes": [[["att_flow_volume_input_time_3_2", 0, 0, {}]]], "class_name": "Conv2D", "name": "att_flow_convs_time0_2_3", "config": {"trainable": true, "dilation_rate": [1, 1], "activation": "linear", "kernel_constraint": null, "bias_regularizer": null, "data_format": "channels_last", "kernel_initializer": {"class_name": "VarianceScaling", "config": {"mode": "fan_avg", "scale": 1.0, "distribution": "uniform", "seed": null}}, "kernel_regularizer": null, "use_bias": true, "bias_initializer": {"class_name": "Zeros", "config": {}}, "name": "att_flow_convs_time0_2_3", "bias_constraint": null, "filters": 64, "activity_regularizer": null, "strides": [1, 1], "kernel_size": [3, 3], "padding": "same"}}, {"inbound_nodes": [], "class_name": "InputLayer", "name": "att_nbhd_volume_input_time_1_3", "config": {"batch_input_shape": [null, 7, 7, 2], "name": "att_nbhd_volume_input_time_1_3", "sparse": false, "dtype": "float32"}}, {"inbound_nodes": [[["att_flow_volume_input_time_1_3", 0, 0, {}]]], "class_name": "Conv2D", "name": "att_flow_convs_time0_3_1", "config": {"trainable": true, "dilation_rate": [1, 1], "activation": "linear", "kernel_constraint": null, "bias_regularizer": null, "data_format": "channels_last", "kernel_initializer": {"class_name": "VarianceScaling", "config": {"mode": "fan_avg", "scale": 1.0, "distribution": "uniform", "seed": null}}, "kernel_regularizer": null, "use_bias": true, "bias_initializer": {"class_name": "Zeros", "config": {}}, "name": "att_flow_convs_time0_3_1", "bias_constraint": null, "filters": 64, "activity_regularizer": null, "strides": [1, 1], "kernel_size": [3, 3], "padding": "same"}}, {"inbound_nodes": [], "class_name": "InputLayer", "name": "att_nbhd_volume_input_time_2_3", "config": {"batch_input_shape": [null, 7, 7, 2], "name": "att_nbhd_volume_input_time_2_3", "sparse": false, "dtype": "float32"}}, {"inbound_nodes": [[["att_flow_volume_input_time_2_3", 0, 0, {}]]], "class_name": "Conv2D", "name": "att_flow_convs_time0_3_2", "config": {"trainable": true, "dilation_rate": [1, 1], "activation": "linear", "kernel_constraint": null, "bias_regularizer": null, "data_format": "channels_last", "kernel_initializer": {"class_name": "VarianceScaling", "config": {"mode": "fan_avg", "scale": 1.0, "distribution": "uniform", "seed": null}}, "kernel_regularizer": null, "use_bias": true, "bias_initializer": {"class_name": "Zeros", "config": {}}, "name": "att_flow_convs_time0_3_2", "bias_constraint": null, "filters": 64, "activity_regularizer": null, "strides": [1, 1], "kernel_size": [3, 3], "padding": "same"}}, {"inbound_nodes": [], "class_name": "InputLayer", "name": "att_nbhd_volume_input_time_3_3", "config": {"batch_input_shape": [null, 7, 7, 2], "name": "att_nbhd_volume_input_time_3_3", "sparse": false, "dtype": "float32"}}, {"inbound_nodes": [[["att_flow_volume_input_time_3_3", 0, 0, {}]]], "class_name": "Conv2D", "name": "att_flow_convs_time0_3_3", "config": {"trainable": true, "dilation_rate": [1, 1], "activation": "linear", "kernel_constraint": null, "bias_regularizer": null, "data_format": "channels_last", "kernel_initializer": {"class_name": "VarianceScaling", "config": {"mode": "fan_avg", "scale": 1.0, "distribution": "uniform", "seed": null}}, "kernel_regularizer": null, "use_bias": true, "bias_initializer": {"class_name": "Zeros", "config": {}}, "name": "att_flow_convs_time0_3_3", "bias_constraint": null, "filters": 64, "activity_regularizer": null, "strides": [1, 1], "kernel_size": [3, 3], "padding": "same"}}, {"inbound_nodes": [[["att_nbhd_volume_input_time_1_1", 0, 0, {}]]], "class_name": "Conv2D", "name": "att_nbhd_convs_time0_1_1", "config": {"trainable": true, "dilation_rate": [1, 1], "activation": "linear", "kernel_constraint": null, "bias_regularizer": null, "data_format": "channels_last", "kernel_initializer": {"class_name": "VarianceScaling", "config": {"mode": "fan_avg", "scale": 1.0, "distribution": "uniform", "seed": null}}, "kernel_regularizer": null, "use_bias": true, "bias_initializer": {"class_name": "Zeros", "config": {}}, "name": "att_nbhd_convs_time0_1_1", "bias_constraint": null, "filters": 64, "activity_regularizer": null, "strides": [1, 1], "kernel_size": [3, 3], "padding": "same"}}, {"inbound_nodes": [[["att_flow_convs_time0_1_1", 0, 0, {}]]], "class_name": "Activation", "name": "att_flow_convs_activation_time0_1_1", "config": {"trainable": true, "name": "att_flow_convs_activation_time0_1_1", "activation": "relu"}}, {"inbound_nodes": [[["att_nbhd_volume_input_time_2_1", 0, 0, {}]]], "class_name": "Conv2D", "name": "att_nbhd_convs_time0_1_2", "config": {"trainable": true, "dilation_rate": [1, 1], "activation": "linear", "kernel_constraint": null, "bias_regularizer": null, "data_format": "channels_last", "kernel_initializer": {"class_name": "VarianceScaling", "config": {"mode": "fan_avg", "scale": 1.0, "distribution": "uniform", "seed": null}}, "kernel_regularizer": null, "use_bias": true, "bias_initializer": {"class_name": "Zeros", "config": {}}, "name": "att_nbhd_convs_time0_1_2", "bias_constraint": null, "filters": 64, "activity_regularizer": null, "strides": [1, 1], "kernel_size": [3, 3], "padding": "same"}}, {"inbound_nodes": [[["att_flow_convs_time0_1_2", 0, 0, {}]]], "class_name": "Activation", "name": "att_flow_convs_activation_time0_1_2", "config": {"trainable": true, "name": "att_flow_convs_activation_time0_1_2", "activation": "relu"}}, {"inbound_nodes": [[["att_nbhd_volume_input_time_3_1", 0, 0, {}]]], "class_name": "Conv2D", "name": "att_nbhd_convs_time0_1_3", "config": {"trainable": true, "dilation_rate": [1, 1], "activation": "linear", "kernel_constraint": null, "bias_regularizer": null, "data_format": "channels_last", "kernel_initializer": {"class_name": "VarianceScaling", "config": {"mode": "fan_avg", "scale": 1.0, "distribution": "uniform", "seed": null}}, "kernel_regularizer": null, "use_bias": true, "bias_initializer": {"class_name": "Zeros", "config": {}}, "name": "att_nbhd_convs_time0_1_3", "bias_constraint": null, "filters": 64, "activity_regularizer": null, "strides": [1, 1], "kernel_size": [3, 3], "padding": "same"}}, {"inbound_nodes": [[["att_flow_convs_time0_1_3", 0, 0, {}]]], "class_name": "Activation", "name": "att_flow_convs_activation_time0_1_3", "config": {"trainable": true, "name": "att_flow_convs_activation_time0_1_3", "activation": "relu"}}, {"inbound_nodes": [[["nbhd_volume_input_time_1", 0, 0, {}]]], "class_name": "Conv2D", "name": "nbhd_convs_time0_1", "config": {"trainable": true, "dilation_rate": [1, 1], "activation": "linear", "kernel_constraint": null, "bias_regularizer": null, "data_format": "channels_last", "kernel_initializer": {"class_name": "VarianceScaling", "config": {"mode": "fan_avg", "scale": 1.0, "distribution": "uniform", "seed": null}}, "kernel_regularizer": null, "use_bias": true, "bias_initializer": {"class_name": "Zeros", "config": {}}, "name": "nbhd_convs_time0_1", "bias_constraint": null, "filters": 64, "activity_regularizer": null, "strides": [1, 1], "kernel_size": [3, 3], "padding": "same"}}, {"inbound_nodes": [[["flow_convs_time0_1", 0, 0, {}]]], "class_name": "Activation", "name": "flow_convs_activation_time0_1", "config": {"trainable": true, "name": "flow_convs_activation_time0_1", "activation": "relu"}}, {"inbound_nodes": [[["nbhd_volume_input_time_2", 0, 0, {}]]], "class_name": "Conv2D", "name": "nbhd_convs_time0_2", "config": {"trainable": true, "dilation_rate": [1, 1], "activation": "linear", "kernel_constraint": null, "bias_regularizer": null, "data_format": "channels_last", "kernel_initializer": {"class_name": "VarianceScaling", "config": {"mode": "fan_avg", "scale": 1.0, "distribution": "uniform", "seed": null}}, "kernel_regularizer": null, "use_bias": true, "bias_initializer": {"class_name": "Zeros", "config": {}}, "name": "nbhd_convs_time0_2", "bias_constraint": null, "filters": 64, "activity_regularizer": null, "strides": [1, 1], "kernel_size": [3, 3], "padding": "same"}}, {"inbound_nodes": [[["flow_convs_time0_2", 0, 0, {}]]], "class_name": "Activation", "name": "flow_convs_activation_time0_2", "config": {"trainable": true, "name": "flow_convs_activation_time0_2", "activation": "relu"}}, {"inbound_nodes": [[["nbhd_volume_input_time_3", 0, 0, {}]]], "class_name": "Conv2D", "name": "nbhd_convs_time0_3", "config": {"trainable": true, "dilation_rate": [1, 1], "activation": "linear", "kernel_constraint": null, "bias_regularizer": null, "data_format": "channels_last", "kernel_initializer": {"class_name": "VarianceScaling", "config": {"mode": "fan_avg", "scale": 1.0, "distribution": "uniform", "seed": null}}, "kernel_regularizer": null, "use_bias": true, "bias_initializer": {"class_name": "Zeros", "config": {}}, "name": "nbhd_convs_time0_3", "bias_constraint": null, "filters": 64, "activity_regularizer": null, "strides": [1, 1], "kernel_size": [3, 3], "padding": "same"}}, {"inbound_nodes": [[["flow_convs_time0_3", 0, 0, {}]]], "class_name": "Activation", "name": "flow_convs_activation_time0_3", "config": {"trainable": true, "name": "flow_convs_activation_time0_3", "activation": "relu"}}, {"inbound_nodes": [[["nbhd_volume_input_time_4", 0, 0, {}]]], "class_name": "Conv2D", "name": "nbhd_convs_time0_4", "config": {"trainable": true, "dilation_rate": [1, 1], "activation": "linear", "kernel_constraint": null, "bias_regularizer": null, "data_format": "channels_last", "kernel_initializer": {"class_name": "VarianceScaling", "config": {"mode": "fan_avg", "scale": 1.0, "distribution": "uniform", "seed": null}}, "kernel_regularizer": null, "use_bias": true, "bias_initializer": {"class_name": "Zeros", "config": {}}, "name": "nbhd_convs_time0_4", "bias_constraint": null, "filters": 64, "activity_regularizer": null, "strides": [1, 1], "kernel_size": [3, 3], "padding": "same"}}, {"inbound_nodes": [[["flow_convs_time0_4", 0, 0, {}]]], "class_name": "Activation", "name": "flow_convs_activation_time0_4", "config": {"trainable": true, "name": "flow_convs_activation_time0_4", "activation": "relu"}}, {"inbound_nodes": [[["nbhd_volume_input_time_5", 0, 0, {}]]], "class_name": "Conv2D", "name": "nbhd_convs_time0_5", "config": {"trainable": true, "dilation_rate": [1, 1], "activation": "linear", "kernel_constraint": null, "bias_regularizer": null, "data_format": "channels_last", "kernel_initializer": {"class_name": "VarianceScaling", "config": {"mode": "fan_avg", "scale": 1.0, "distribution": "uniform", "seed": null}}, "kernel_regularizer": null, "use_bias": true, "bias_initializer": {"class_name": "Zeros", "config": {}}, "name": "nbhd_convs_time0_5", "bias_constraint": null, "filters": 64, "activity_regularizer": null, "strides": [1, 1], "kernel_size": [3, 3], "padding": "same"}}, {"inbound_nodes": [[["flow_convs_time0_5", 0, 0, {}]]], "class_name": "Activation", "name": "flow_convs_activation_time0_5", "config": {"trainable": true, "name": "flow_convs_activation_time0_5", "activation": "relu"}}, {"inbound_nodes": [[["nbhd_volume_input_time_6", 0, 0, {}]]], "class_name": "Conv2D", "name": "nbhd_convs_time0_6", "config": {"trainable": true, "dilation_rate": [1, 1], "activation": "linear", "kernel_constraint": null, "bias_regularizer": null, "data_format": "channels_last", "kernel_initializer": {"class_name": "VarianceScaling", "config": {"mode": "fan_avg", "scale": 1.0, "distribution": "uniform", "seed": null}}, "kernel_regularizer": null, "use_bias": true, "bias_initializer": {"class_name": "Zeros", "config": {}}, "name": "nbhd_convs_time0_6", "bias_constraint": null, "filters": 64, "activity_regularizer": null, "strides": [1, 1], "kernel_size": [3, 3], "padding": "same"}}, {"inbound_nodes": [[["flow_convs_time0_6", 0, 0, {}]]], "class_name": "Activation", "name": "flow_convs_activation_time0_6", "config": {"trainable": true, "name": "flow_convs_activation_time0_6", "activation": "relu"}}, {"inbound_nodes": [[["nbhd_volume_input_time_7", 0, 0, {}]]], "class_name": "Conv2D", "name": "nbhd_convs_time0_7", "config": {"trainable": true, "dilation_rate": [1, 1], "activation": "linear", "kernel_constraint": null, "bias_regularizer": null, "data_format": "channels_last", "kernel_initializer": {"class_name": "VarianceScaling", "config": {"mode": "fan_avg", "scale": 1.0, "distribution": "uniform", "seed": null}}, "kernel_regularizer": null, "use_bias": true, "bias_initializer": {"class_name": "Zeros", "config": {}}, "name": "nbhd_convs_time0_7", "bias_constraint": null, "filters": 64, "activity_regularizer": null, "strides": [1, 1], "kernel_size": [3, 3], "padding": "same"}}, {"inbound_nodes": [[["flow_convs_time0_7", 0, 0, {}]]], "class_name": "Activation", "name": "flow_convs_activation_time0_7", "config": {"trainable": true, "name": "flow_convs_activation_time0_7", "activation": "relu"}}, {"inbound_nodes": [[["att_nbhd_volume_input_time_1_2", 0, 0, {}]]], "class_name": "Conv2D", "name": "att_nbhd_convs_time0_2_1", "config": {"trainable": true, "dilation_rate": [1, 1], "activation": "linear", "kernel_constraint": null, "bias_regularizer": null, "data_format": "channels_last", "kernel_initializer": {"class_name": "VarianceScaling", "config": {"mode": "fan_avg", "scale": 1.0, "distribution": "uniform", "seed": null}}, "kernel_regularizer": null, "use_bias": true, "bias_initializer": {"class_name": "Zeros", "config": {}}, "name": "att_nbhd_convs_time0_2_1", "bias_constraint": null, "filters": 64, "activity_regularizer": null, "strides": [1, 1], "kernel_size": [3, 3], "padding": "same"}}, {"inbound_nodes": [[["att_flow_convs_time0_2_1", 0, 0, {}]]], "class_name": "Activation", "name": "att_flow_convs_activation_time0_2_1", "config": {"trainable": true, "name": "att_flow_convs_activation_time0_2_1", "activation": "relu"}}, {"inbound_nodes": [[["att_nbhd_volume_input_time_2_2", 0, 0, {}]]], "class_name": "Conv2D", "name": "att_nbhd_convs_time0_2_2", "config": {"trainable": true, "dilation_rate": [1, 1], "activation": "linear", "kernel_constraint": null, "bias_regularizer": null, "data_format": "channels_last", "kernel_initializer": {"class_name": "VarianceScaling", "config": {"mode": "fan_avg", "scale": 1.0, "distribution": "uniform", "seed": null}}, "kernel_regularizer": null, "use_bias": true, "bias_initializer": {"class_name": "Zeros", "config": {}}, "name": "att_nbhd_convs_time0_2_2", "bias_constraint": null, "filters": 64, "activity_regularizer": null, "strides": [1, 1], "kernel_size": [3, 3], "padding": "same"}}, {"inbound_nodes": [[["att_flow_convs_time0_2_2", 0, 0, {}]]], "class_name": "Activation", "name": "att_flow_convs_activation_time0_2_2", "config": {"trainable": true, "name": "att_flow_convs_activation_time0_2_2", "activation": "relu"}}, {"inbound_nodes": [[["att_nbhd_volume_input_time_3_2", 0, 0, {}]]], "class_name": "Conv2D", "name": "att_nbhd_convs_time0_2_3", "config": {"trainable": true, "dilation_rate": [1, 1], "activation": "linear", "kernel_constraint": null, "bias_regularizer": null, "data_format": "channels_last", "kernel_initializer": {"class_name": "VarianceScaling", "config": {"mode": "fan_avg", "scale": 1.0, "distribution": "uniform", "seed": null}}, "kernel_regularizer": null, "use_bias": true, "bias_initializer": {"class_name": "Zeros", "config": {}}, "name": "att_nbhd_convs_time0_2_3", "bias_constraint": null, "filters": 64, "activity_regularizer": null, "strides": [1, 1], "kernel_size": [3, 3], "padding": "same"}}, {"inbound_nodes": [[["att_flow_convs_time0_2_3", 0, 0, {}]]], "class_name": "Activation", "name": "att_flow_convs_activation_time0_2_3", "config": {"trainable": true, "name": "att_flow_convs_activation_time0_2_3", "activation": "relu"}}, {"inbound_nodes": [[["att_nbhd_volume_input_time_1_3", 0, 0, {}]]], "class_name": "Conv2D", "name": "att_nbhd_convs_time0_3_1", "config": {"trainable": true, "dilation_rate": [1, 1], "activation": "linear", "kernel_constraint": null, "bias_regularizer": null, "data_format": "channels_last", "kernel_initializer": {"class_name": "VarianceScaling", "config": {"mode": "fan_avg", "scale": 1.0, "distribution": "uniform", "seed": null}}, "kernel_regularizer": null, "use_bias": true, "bias_initializer": {"class_name": "Zeros", "config": {}}, "name": "att_nbhd_convs_time0_3_1", "bias_constraint": null, "filters": 64, "activity_regularizer": null, "strides": [1, 1], "kernel_size": [3, 3], "padding": "same"}}, {"inbound_nodes": [[["att_flow_convs_time0_3_1", 0, 0, {}]]], "class_name": "Activation", "name": "att_flow_convs_activation_time0_3_1", "config": {"trainable": true, "name": "att_flow_convs_activation_time0_3_1", "activation": "relu"}}, {"inbound_nodes": [[["att_nbhd_volume_input_time_2_3", 0, 0, {}]]], "class_name": "Conv2D", "name": "att_nbhd_convs_time0_3_2", "config": {"trainable": true, "dilation_rate": [1, 1], "activation": "linear", "kernel_constraint": null, "bias_regularizer": null, "data_format": "channels_last", "kernel_initializer": {"class_name": "VarianceScaling", "config": {"mode": "fan_avg", "scale": 1.0, "distribution": "uniform", "seed": null}}, "kernel_regularizer": null, "use_bias": true, "bias_initializer": {"class_name": "Zeros", "config": {}}, "name": "att_nbhd_convs_time0_3_2", "bias_constraint": null, "filters": 64, "activity_regularizer": null, "strides": [1, 1], "kernel_size": [3, 3], "padding": "same"}}, {"inbound_nodes": [[["att_flow_convs_time0_3_2", 0, 0, {}]]], "class_name": "Activation", "name": "att_flow_convs_activation_time0_3_2", "config": {"trainable": true, "name": "att_flow_convs_activation_time0_3_2", "activation": "relu"}}, {"inbound_nodes": [[["att_nbhd_volume_input_time_3_3", 0, 0, {}]]], "class_name": "Conv2D", "name": "att_nbhd_convs_time0_3_3", "config": {"trainable": true, "dilation_rate": [1, 1], "activation": "linear", "kernel_constraint": null, "bias_regularizer": null, "data_format": "channels_last", "kernel_initializer": {"class_name": "VarianceScaling", "config": {"mode": "fan_avg", "scale": 1.0, "distribution": "uniform", "seed": null}}, "kernel_regularizer": null, "use_bias": true, "bias_initializer": {"class_name": "Zeros", "config": {}}, "name": "att_nbhd_convs_time0_3_3", "bias_constraint": null, "filters": 64, "activity_regularizer": null, "strides": [1, 1], "kernel_size": [3, 3], "padding": "same"}}, {"inbound_nodes": [[["att_flow_convs_time0_3_3", 0, 0, {}]]], "class_name": "Activation", "name": "att_flow_convs_activation_time0_3_3", "config": {"trainable": true, "name": "att_flow_convs_activation_time0_3_3", "activation": "relu"}}, {"inbound_nodes": [[["att_nbhd_convs_time0_1_1", 0, 0, {}]]], "class_name": "Activation", "name": "att_nbhd_convs_activation_time0_1_1", "config": {"trainable": true, "name": "att_nbhd_convs_activation_time0_1_1", "activation": "relu"}}, {"inbound_nodes": [[["att_flow_convs_activation_time0_1_1", 0, 0, {}]]], "class_name": "Activation", "name": "att_flow_gate0_1_1", "config": {"trainable": true, "name": "att_flow_gate0_1_1", "activation": "sigmoid"}}, {"inbound_nodes": [[["att_nbhd_convs_time0_1_2", 0, 0, {}]]], "class_name": "Activation", "name": "att_nbhd_convs_activation_time0_1_2", "config": {"trainable": true, "name": "att_nbhd_convs_activation_time0_1_2", "activation": "relu"}}, {"inbound_nodes": [[["att_flow_convs_activation_time0_1_2", 0, 0, {}]]], "class_name": "Activation", "name": "att_flow_gate0_1_2", "config": {"trainable": true, "name": "att_flow_gate0_1_2", "activation": "sigmoid"}}, {"inbound_nodes": [[["att_nbhd_convs_time0_1_3", 0, 0, {}]]], "class_name": "Activation", "name": "att_nbhd_convs_activation_time0_1_3", "config": {"trainable": true, "name": "att_nbhd_convs_activation_time0_1_3", "activation": "relu"}}, {"inbound_nodes": [[["att_flow_convs_activation_time0_1_3", 0, 0, {}]]], "class_name": "Activation", "name": "att_flow_gate0_1_3", "config": {"trainable": true, "name": "att_flow_gate0_1_3", "activation": "sigmoid"}}, {"inbound_nodes": [[["nbhd_convs_time0_1", 0, 0, {}]]], "class_name": "Activation", "name": "nbhd_convs_activation_time0_1", "config": {"trainable": true, "name": "nbhd_convs_activation_time0_1", "activation": "relu"}}, {"inbound_nodes": [[["flow_convs_activation_time0_1", 0, 0, {}]]], "class_name": "Activation", "name": "flow_gate0_1", "config": {"trainable": true, "name": "flow_gate0_1", "activation": "sigmoid"}}, {"inbound_nodes": [[["nbhd_convs_time0_2", 0, 0, {}]]], "class_name": "Activation", "name": "nbhd_convs_activation_time0_2", "config": {"trainable": true, "name": "nbhd_convs_activation_time0_2", "activation": "relu"}}, {"inbound_nodes": [[["flow_convs_activation_time0_2", 0, 0, {}]]], "class_name": "Activation", "name": "flow_gate0_2", "config": {"trainable": true, "name": "flow_gate0_2", "activation": "sigmoid"}}, {"inbound_nodes": [[["nbhd_convs_time0_3", 0, 0, {}]]], "class_name": "Activation", "name": "nbhd_convs_activation_time0_3", "config": {"trainable": true, "name": "nbhd_convs_activation_time0_3", "activation": "relu"}}, {"inbound_nodes": [[["flow_convs_activation_time0_3", 0, 0, {}]]], "class_name": "Activation", "name": "flow_gate0_3", "config": {"trainable": true, "name": "flow_gate0_3", "activation": "sigmoid"}}, {"inbound_nodes": [[["nbhd_convs_time0_4", 0, 0, {}]]], "class_name": "Activation", "name": "nbhd_convs_activation_time0_4", "config": {"trainable": true, "name": "nbhd_convs_activation_time0_4", "activation": "relu"}}, {"inbound_nodes": [[["flow_convs_activation_time0_4", 0, 0, {}]]], "class_name": "Activation", "name": "flow_gate0_4", "config": {"trainable": true, "name": "flow_gate0_4", "activation": "sigmoid"}}, {"inbound_nodes": [[["nbhd_convs_time0_5", 0, 0, {}]]], "class_name": "Activation", "name": "nbhd_convs_activation_time0_5", "config": {"trainable": true, "name": "nbhd_convs_activation_time0_5", "activation": "relu"}}, {"inbound_nodes": [[["flow_convs_activation_time0_5", 0, 0, {}]]], "class_name": "Activation", "name": "flow_gate0_5", "config": {"trainable": true, "name": "flow_gate0_5", "activation": "sigmoid"}}, {"inbound_nodes": [[["nbhd_convs_time0_6", 0, 0, {}]]], "class_name": "Activation", "name": "nbhd_convs_activation_time0_6", "config": {"trainable": true, "name": "nbhd_convs_activation_time0_6", "activation": "relu"}}, {"inbound_nodes": [[["flow_convs_activation_time0_6", 0, 0, {}]]], "class_name": "Activation", "name": "flow_gate0_6", "config": {"trainable": true, "name": "flow_gate0_6", "activation": "sigmoid"}}, {"inbound_nodes": [[["nbhd_convs_time0_7", 0, 0, {}]]], "class_name": "Activation", "name": "nbhd_convs_activation_time0_7", "config": {"trainable": true, "name": "nbhd_convs_activation_time0_7", "activation": "relu"}}, {"inbound_nodes": [[["flow_convs_activation_time0_7", 0, 0, {}]]], "class_name": "Activation", "name": "flow_gate0_7", "config": {"trainable": true, "name": "flow_gate0_7", "activation": "sigmoid"}}, {"inbound_nodes": [[["att_nbhd_convs_time0_2_1", 0, 0, {}]]], "class_name": "Activation", "name": "att_nbhd_convs_activation_time0_2_1", "config": {"trainable": true, "name": "att_nbhd_convs_activation_time0_2_1", "activation": "relu"}}, {"inbound_nodes": [[["att_flow_convs_activation_time0_2_1", 0, 0, {}]]], "class_name": "Activation", "name": "att_flow_gate0_2_1", "config": {"trainable": true, "name": "att_flow_gate0_2_1", "activation": "sigmoid"}}, {"inbound_nodes": [[["att_nbhd_convs_time0_2_2", 0, 0, {}]]], "class_name": "Activation", "name": "att_nbhd_convs_activation_time0_2_2", "config": {"trainable": true, "name": "att_nbhd_convs_activation_time0_2_2", "activation": "relu"}}, {"inbound_nodes": [[["att_flow_convs_activation_time0_2_2", 0, 0, {}]]], "class_name": "Activation", "name": "att_flow_gate0_2_2", "config": {"trainable": true, "name": "att_flow_gate0_2_2", "activation": "sigmoid"}}, {"inbound_nodes": [[["att_nbhd_convs_time0_2_3", 0, 0, {}]]], "class_name": "Activation", "name": "att_nbhd_convs_activation_time0_2_3", "config": {"trainable": true, "name": "att_nbhd_convs_activation_time0_2_3", "activation": "relu"}}, {"inbound_nodes": [[["att_flow_convs_activation_time0_2_3", 0, 0, {}]]], "class_name": "Activation", "name": "att_flow_gate0_2_3", "config": {"trainable": true, "name": "att_flow_gate0_2_3", "activation": "sigmoid"}}, {"inbound_nodes": [[["att_nbhd_convs_time0_3_1", 0, 0, {}]]], "class_name": "Activation", "name": "att_nbhd_convs_activation_time0_3_1", "config": {"trainable": true, "name": "att_nbhd_convs_activation_time0_3_1", "activation": "relu"}}, {"inbound_nodes": [[["att_flow_convs_activation_time0_3_1", 0, 0, {}]]], "class_name": "Activation", "name": "att_flow_gate0_3_1", "config": {"trainable": true, "name": "att_flow_gate0_3_1", "activation": "sigmoid"}}, {"inbound_nodes": [[["att_nbhd_convs_time0_3_2", 0, 0, {}]]], "class_name": "Activation", "name": "att_nbhd_convs_activation_time0_3_2", "config": {"trainable": true, "name": "att_nbhd_convs_activation_time0_3_2", "activation": "relu"}}, {"inbound_nodes": [[["att_flow_convs_activation_time0_3_2", 0, 0, {}]]], "class_name": "Activation", "name": "att_flow_gate0_3_2", "config": {"trainable": true, "name": "att_flow_gate0_3_2", "activation": "sigmoid"}}, {"inbound_nodes": [[["att_nbhd_convs_time0_3_3", 0, 0, {}]]], "class_name": "Activation", "name": "att_nbhd_convs_activation_time0_3_3", "config": {"trainable": true, "name": "att_nbhd_convs_activation_time0_3_3", "activation": "relu"}}, {"inbound_nodes": [[["att_flow_convs_activation_time0_3_3", 0, 0, {}]]], "class_name": "Activation", "name": "att_flow_gate0_3_3", "config": {"trainable": true, "name": "att_flow_gate0_3_3", "activation": "sigmoid"}}, {"inbound_nodes": [[["att_nbhd_convs_activation_time0_1_1", 0, 0, {}], ["att_flow_gate0_1_1", 0, 0, {}]]], "class_name": "Multiply", "name": "multiply_22", "config": {"trainable": true, "name": "multiply_22"}}, {"inbound_nodes": [[["att_flow_convs_activation_time0_1_1", 0, 0, {}]]], "class_name": "Conv2D", "name": "att_flow_convs_time1_1_1", "config": {"trainable": true, "dilation_rate": [1, 1], "activation": "linear", "kernel_constraint": null, "bias_regularizer": null, "data_format": "channels_last", "kernel_initializer": {"class_name": "VarianceScaling", "config": {"mode": "fan_avg", "scale": 1.0, "distribution": "uniform", "seed": null}}, "kernel_regularizer": null, "use_bias": true, "bias_initializer": {"class_name": "Zeros", "config": {}}, "name": "att_flow_convs_time1_1_1", "bias_constraint": null, "filters": 64, "activity_regularizer": null, "strides": [1, 1], "kernel_size": [3, 3], "padding": "same"}}, {"inbound_nodes": [[["att_nbhd_convs_activation_time0_1_2", 0, 0, {}], ["att_flow_gate0_1_2", 0, 0, {}]]], "class_name": "Multiply", "name": "multiply_23", "config": {"trainable": true, "name": "multiply_23"}}, {"inbound_nodes": [[["att_flow_convs_activation_time0_1_2", 0, 0, {}]]], "class_name": "Conv2D", "name": "att_flow_convs_time1_1_2", "config": {"trainable": true, "dilation_rate": [1, 1], "activation": "linear", "kernel_constraint": null, "bias_regularizer": null, "data_format": "channels_last", "kernel_initializer": {"class_name": "VarianceScaling", "config": {"mode": "fan_avg", "scale": 1.0, "distribution": "uniform", "seed": null}}, "kernel_regularizer": null, "use_bias": true, "bias_initializer": {"class_name": "Zeros", "config": {}}, "name": "att_flow_convs_time1_1_2", "bias_constraint": null, "filters": 64, "activity_regularizer": null, "strides": [1, 1], "kernel_size": [3, 3], "padding": "same"}}, {"inbound_nodes": [[["att_nbhd_convs_activation_time0_1_3", 0, 0, {}], ["att_flow_gate0_1_3", 0, 0, {}]]], "class_name": "Multiply", "name": "multiply_24", "config": {"trainable": true, "name": "multiply_24"}}, {"inbound_nodes": [[["att_flow_convs_activation_time0_1_3", 0, 0, {}]]], "class_name": "Conv2D", "name": "att_flow_convs_time1_1_3", "config": {"trainable": true, "dilation_rate": [1, 1], "activation": "linear", "kernel_constraint": null, "bias_regularizer": null, "data_format": "channels_last", "kernel_initializer": {"class_name": "VarianceScaling", "config": {"mode": "fan_avg", "scale": 1.0, "distribution": "uniform", "seed": null}}, "kernel_regularizer": null, "use_bias": true, "bias_initializer": {"class_name": "Zeros", "config": {}}, "name": "att_flow_convs_time1_1_3", "bias_constraint": null, "filters": 64, "activity_regularizer": null, "strides": [1, 1], "kernel_size": [3, 3], "padding": "same"}}, {"inbound_nodes": [[["nbhd_convs_activation_time0_1", 0, 0, {}], ["flow_gate0_1", 0, 0, {}]]], "class_name": "Multiply", "name": "multiply_1", "config": {"trainable": true, "name": "multiply_1"}}, {"inbound_nodes": [[["flow_volume_input_time_1", 0, 0, {}]]], "class_name": "Conv2D", "name": "flow_convs_time1_1", "config": {"trainable": true, "dilation_rate": [1, 1], "activation": "linear", "kernel_constraint": null, "bias_regularizer": null, "data_format": "channels_last", "kernel_initializer": {"class_name": "VarianceScaling", "config": {"mode": "fan_avg", "scale": 1.0, "distribution": "uniform", "seed": null}}, "kernel_regularizer": null, "use_bias": true, "bias_initializer": {"class_name": "Zeros", "config": {}}, "name": "flow_convs_time1_1", "bias_constraint": null, "filters": 64, "activity_regularizer": null, "strides": [1, 1], "kernel_size": [3, 3], "padding": "same"}}, {"inbound_nodes": [[["nbhd_convs_activation_time0_2", 0, 0, {}], ["flow_gate0_2", 0, 0, {}]]], "class_name": "Multiply", "name": "multiply_2", "config": {"trainable": true, "name": "multiply_2"}}, {"inbound_nodes": [[["flow_volume_input_time_2", 0, 0, {}]]], "class_name": "Conv2D", "name": "flow_convs_time1_2", "config": {"trainable": true, "dilation_rate": [1, 1], "activation": "linear", "kernel_constraint": null, "bias_regularizer": null, "data_format": "channels_last", "kernel_initializer": {"class_name": "VarianceScaling", "config": {"mode": "fan_avg", "scale": 1.0, "distribution": "uniform", "seed": null}}, "kernel_regularizer": null, "use_bias": true, "bias_initializer": {"class_name": "Zeros", "config": {}}, "name": "flow_convs_time1_2", "bias_constraint": null, "filters": 64, "activity_regularizer": null, "strides": [1, 1], "kernel_size": [3, 3], "padding": "same"}}, {"inbound_nodes": [[["nbhd_convs_activation_time0_3", 0, 0, {}], ["flow_gate0_3", 0, 0, {}]]], "class_name": "Multiply", "name": "multiply_3", "config": {"trainable": true, "name": "multiply_3"}}, {"inbound_nodes": [[["flow_volume_input_time_3", 0, 0, {}]]], "class_name": "Conv2D", "name": "flow_convs_time1_3", "config": {"trainable": true, "dilation_rate": [1, 1], "activation": "linear", "kernel_constraint": null, "bias_regularizer": null, "data_format": "channels_last", "kernel_initializer": {"class_name": "VarianceScaling", "config": {"mode": "fan_avg", "scale": 1.0, "distribution": "uniform", "seed": null}}, "kernel_regularizer": null, "use_bias": true, "bias_initializer": {"class_name": "Zeros", "config": {}}, "name": "flow_convs_time1_3", "bias_constraint": null, "filters": 64, "activity_regularizer": null, "strides": [1, 1], "kernel_size": [3, 3], "padding": "same"}}, {"inbound_nodes": [[["nbhd_convs_activation_time0_4", 0, 0, {}], ["flow_gate0_4", 0, 0, {}]]], "class_name": "Multiply", "name": "multiply_4", "config": {"trainable": true, "name": "multiply_4"}}, {"inbound_nodes": [[["flow_volume_input_time_4", 0, 0, {}]]], "class_name": "Conv2D", "name": "flow_convs_time1_4", "config": {"trainable": true, "dilation_rate": [1, 1], "activation": "linear", "kernel_constraint": null, "bias_regularizer": null, "data_format": "channels_last", "kernel_initializer": {"class_name": "VarianceScaling", "config": {"mode": "fan_avg", "scale": 1.0, "distribution": "uniform", "seed": null}}, "kernel_regularizer": null, "use_bias": true, "bias_initializer": {"class_name": "Zeros", "config": {}}, "name": "flow_convs_time1_4", "bias_constraint": null, "filters": 64, "activity_regularizer": null, "strides": [1, 1], "kernel_size": [3, 3], "padding": "same"}}, {"inbound_nodes": [[["nbhd_convs_activation_time0_5", 0, 0, {}], ["flow_gate0_5", 0, 0, {}]]], "class_name": "Multiply", "name": "multiply_5", "config": {"trainable": true, "name": "multiply_5"}}, {"inbound_nodes": [[["flow_volume_input_time_5", 0, 0, {}]]], "class_name": "Conv2D", "name": "flow_convs_time1_5", "config": {"trainable": true, "dilation_rate": [1, 1], "activation": "linear", "kernel_constraint": null, "bias_regularizer": null, "data_format": "channels_last", "kernel_initializer": {"class_name": "VarianceScaling", "config": {"mode": "fan_avg", "scale": 1.0, "distribution": "uniform", "seed": null}}, "kernel_regularizer": null, "use_bias": true, "bias_initializer": {"class_name": "Zeros", "config": {}}, "name": "flow_convs_time1_5", "bias_constraint": null, "filters": 64, "activity_regularizer": null, "strides": [1, 1], "kernel_size": [3, 3], "padding": "same"}}, {"inbound_nodes": [[["nbhd_convs_activation_time0_6", 0, 0, {}], ["flow_gate0_6", 0, 0, {}]]], "class_name": "Multiply", "name": "multiply_6", "config": {"trainable": true, "name": "multiply_6"}}, {"inbound_nodes": [[["flow_volume_input_time_6", 0, 0, {}]]], "class_name": "Conv2D", "name": "flow_convs_time1_6", "config": {"trainable": true, "dilation_rate": [1, 1], "activation": "linear", "kernel_constraint": null, "bias_regularizer": null, "data_format": "channels_last", "kernel_initializer": {"class_name": "VarianceScaling", "config": {"mode": "fan_avg", "scale": 1.0, "distribution": "uniform", "seed": null}}, "kernel_regularizer": null, "use_bias": true, "bias_initializer": {"class_name": "Zeros", "config": {}}, "name": "flow_convs_time1_6", "bias_constraint": null, "filters": 64, "activity_regularizer": null, "strides": [1, 1], "kernel_size": [3, 3], "padding": "same"}}, {"inbound_nodes": [[["nbhd_convs_activation_time0_7", 0, 0, {}], ["flow_gate0_7", 0, 0, {}]]], "class_name": "Multiply", "name": "multiply_7", "config": {"trainable": true, "name": "multiply_7"}}, {"inbound_nodes": [[["flow_volume_input_time_7", 0, 0, {}]]], "class_name": "Conv2D", "name": "flow_convs_time1_7", "config": {"trainable": true, "dilation_rate": [1, 1], "activation": "linear", "kernel_constraint": null, "bias_regularizer": null, "data_format": "channels_last", "kernel_initializer": {"class_name": "VarianceScaling", "config": {"mode": "fan_avg", "scale": 1.0, "distribution": "uniform", "seed": null}}, "kernel_regularizer": null, "use_bias": true, "bias_initializer": {"class_name": "Zeros", "config": {}}, "name": "flow_convs_time1_7", "bias_constraint": null, "filters": 64, "activity_regularizer": null, "strides": [1, 1], "kernel_size": [3, 3], "padding": "same"}}, {"inbound_nodes": [[["att_nbhd_convs_activation_time0_2_1", 0, 0, {}], ["att_flow_gate0_2_1", 0, 0, {}]]], "class_name": "Multiply", "name": "multiply_25", "config": {"trainable": true, "name": "multiply_25"}}, {"inbound_nodes": [[["att_flow_convs_activation_time0_2_1", 0, 0, {}]]], "class_name": "Conv2D", "name": "att_flow_convs_time1_2_1", "config": {"trainable": true, "dilation_rate": [1, 1], "activation": "linear", "kernel_constraint": null, "bias_regularizer": null, "data_format": "channels_last", "kernel_initializer": {"class_name": "VarianceScaling", "config": {"mode": "fan_avg", "scale": 1.0, "distribution": "uniform", "seed": null}}, "kernel_regularizer": null, "use_bias": true, "bias_initializer": {"class_name": "Zeros", "config": {}}, "name": "att_flow_convs_time1_2_1", "bias_constraint": null, "filters": 64, "activity_regularizer": null, "strides": [1, 1], "kernel_size": [3, 3], "padding": "same"}}, {"inbound_nodes": [[["att_nbhd_convs_activation_time0_2_2", 0, 0, {}], ["att_flow_gate0_2_2", 0, 0, {}]]], "class_name": "Multiply", "name": "multiply_26", "config": {"trainable": true, "name": "multiply_26"}}, {"inbound_nodes": [[["att_flow_convs_activation_time0_2_2", 0, 0, {}]]], "class_name": "Conv2D", "name": "att_flow_convs_time1_2_2", "config": {"trainable": true, "dilation_rate": [1, 1], "activation": "linear", "kernel_constraint": null, "bias_regularizer": null, "data_format": "channels_last", "kernel_initializer": {"class_name": "VarianceScaling", "config": {"mode": "fan_avg", "scale": 1.0, "distribution": "uniform", "seed": null}}, "kernel_regularizer": null, "use_bias": true, "bias_initializer": {"class_name": "Zeros", "config": {}}, "name": "att_flow_convs_time1_2_2", "bias_constraint": null, "filters": 64, "activity_regularizer": null, "strides": [1, 1], "kernel_size": [3, 3], "padding": "same"}}, {"inbound_nodes": [[["att_nbhd_convs_activation_time0_2_3", 0, 0, {}], ["att_flow_gate0_2_3", 0, 0, {}]]], "class_name": "Multiply", "name": "multiply_27", "config": {"trainable": true, "name": "multiply_27"}}, {"inbound_nodes": [[["att_flow_convs_activation_time0_2_3", 0, 0, {}]]], "class_name": "Conv2D", "name": "att_flow_convs_time1_2_3", "config": {"trainable": true, "dilation_rate": [1, 1], "activation": "linear", "kernel_constraint": null, "bias_regularizer": null, "data_format": "channels_last", "kernel_initializer": {"class_name": "VarianceScaling", "config": {"mode": "fan_avg", "scale": 1.0, "distribution": "uniform", "seed": null}}, "kernel_regularizer": null, "use_bias": true, "bias_initializer": {"class_name": "Zeros", "config": {}}, "name": "att_flow_convs_time1_2_3", "bias_constraint": null, "filters": 64, "activity_regularizer": null, "strides": [1, 1], "kernel_size": [3, 3], "padding": "same"}}, {"inbound_nodes": [[["att_nbhd_convs_activation_time0_3_1", 0, 0, {}], ["att_flow_gate0_3_1", 0, 0, {}]]], "class_name": "Multiply", "name": "multiply_28", "config": {"trainable": true, "name": "multiply_28"}}, {"inbound_nodes": [[["att_flow_convs_activation_time0_3_1", 0, 0, {}]]], "class_name": "Conv2D", "name": "att_flow_convs_time1_3_1", "config": {"trainable": true, "dilation_rate": [1, 1], "activation": "linear", "kernel_constraint": null, "bias_regularizer": null, "data_format": "channels_last", "kernel_initializer": {"class_name": "VarianceScaling", "config": {"mode": "fan_avg", "scale": 1.0, "distribution": "uniform", "seed": null}}, "kernel_regularizer": null, "use_bias": true, "bias_initializer": {"class_name": "Zeros", "config": {}}, "name": "att_flow_convs_time1_3_1", "bias_constraint": null, "filters": 64, "activity_regularizer": null, "strides": [1, 1], "kernel_size": [3, 3], "padding": "same"}}, {"inbound_nodes": [[["att_nbhd_convs_activation_time0_3_2", 0, 0, {}], ["att_flow_gate0_3_2", 0, 0, {}]]], "class_name": "Multiply", "name": "multiply_29", "config": {"trainable": true, "name": "multiply_29"}}, {"inbound_nodes": [[["att_flow_convs_activation_time0_3_2", 0, 0, {}]]], "class_name": "Conv2D", "name": "att_flow_convs_time1_3_2", "config": {"trainable": true, "dilation_rate": [1, 1], "activation": "linear", "kernel_constraint": null, "bias_regularizer": null, "data_format": "channels_last", "kernel_initializer": {"class_name": "VarianceScaling", "config": {"mode": "fan_avg", "scale": 1.0, "distribution": "uniform", "seed": null}}, "kernel_regularizer": null, "use_bias": true, "bias_initializer": {"class_name": "Zeros", "config": {}}, "name": "att_flow_convs_time1_3_2", "bias_constraint": null, "filters": 64, "activity_regularizer": null, "strides": [1, 1], "kernel_size": [3, 3], "padding": "same"}}, {"inbound_nodes": [[["att_nbhd_convs_activation_time0_3_3", 0, 0, {}], ["att_flow_gate0_3_3", 0, 0, {}]]], "class_name": "Multiply", "name": "multiply_30", "config": {"trainable": true, "name": "multiply_30"}}, {"inbound_nodes": [[["att_flow_convs_activation_time0_3_3", 0, 0, {}]]], "class_name": "Conv2D", "name": "att_flow_convs_time1_3_3", "config": {"trainable": true, "dilation_rate": [1, 1], "activation": "linear", "kernel_constraint": null, "bias_regularizer": null, "data_format": "channels_last", "kernel_initializer": {"class_name": "VarianceScaling", "config": {"mode": "fan_avg", "scale": 1.0, "distribution": "uniform", "seed": null}}, "kernel_regularizer": null, "use_bias": true, "bias_initializer": {"class_name": "Zeros", "config": {}}, "name": "att_flow_convs_time1_3_3", "bias_constraint": null, "filters": 64, "activity_regularizer": null, "strides": [1, 1], "kernel_size": [3, 3], "padding": "same"}}, {"inbound_nodes": [[["multiply_22", 0, 0, {}]]], "class_name": "Conv2D", "name": "att_nbhd_convs_time1_1_1", "config": {"trainable": true, "dilation_rate": [1, 1], "activation": "linear", "kernel_constraint": null, "bias_regularizer": null, "data_format": "channels_last", "kernel_initializer": {"class_name": "VarianceScaling", "config": {"mode": "fan_avg", "scale": 1.0, "distribution": "uniform", "seed": null}}, "kernel_regularizer": null, "use_bias": true, "bias_initializer": {"class_name": "Zeros", "config": {}}, "name": "att_nbhd_convs_time1_1_1", "bias_constraint": null, "filters": 64, "activity_regularizer": null, "strides": [1, 1], "kernel_size": [3, 3], "padding": "same"}}, {"inbound_nodes": [[["att_flow_convs_time1_1_1", 0, 0, {}]]], "class_name": "Activation", "name": "att_flow_convs_activation_time1_1_1", "config": {"trainable": true, "name": "att_flow_convs_activation_time1_1_1", "activation": "relu"}}, {"inbound_nodes": [[["multiply_23", 0, 0, {}]]], "class_name": "Conv2D", "name": "att_nbhd_convs_time1_1_2", "config": {"trainable": true, "dilation_rate": [1, 1], "activation": "linear", "kernel_constraint": null, "bias_regularizer": null, "data_format": "channels_last", "kernel_initializer": {"class_name": "VarianceScaling", "config": {"mode": "fan_avg", "scale": 1.0, "distribution": "uniform", "seed": null}}, "kernel_regularizer": null, "use_bias": true, "bias_initializer": {"class_name": "Zeros", "config": {}}, "name": "att_nbhd_convs_time1_1_2", "bias_constraint": null, "filters": 64, "activity_regularizer": null, "strides": [1, 1], "kernel_size": [3, 3], "padding": "same"}}, {"inbound_nodes": [[["att_flow_convs_time1_1_2", 0, 0, {}]]], "class_name": "Activation", "name": "att_flow_convs_activation_time1_1_2", "config": {"trainable": true, "name": "att_flow_convs_activation_time1_1_2", "activation": "relu"}}, {"inbound_nodes": [[["multiply_24", 0, 0, {}]]], "class_name": "Conv2D", "name": "att_nbhd_convs_time1_1_3", "config": {"trainable": true, "dilation_rate": [1, 1], "activation": "linear", "kernel_constraint": null, "bias_regularizer": null, "data_format": "channels_last", "kernel_initializer": {"class_name": "VarianceScaling", "config": {"mode": "fan_avg", "scale": 1.0, "distribution": "uniform", "seed": null}}, "kernel_regularizer": null, "use_bias": true, "bias_initializer": {"class_name": "Zeros", "config": {}}, "name": "att_nbhd_convs_time1_1_3", "bias_constraint": null, "filters": 64, "activity_regularizer": null, "strides": [1, 1], "kernel_size": [3, 3], "padding": "same"}}, {"inbound_nodes": [[["att_flow_convs_time1_1_3", 0, 0, {}]]], "class_name": "Activation", "name": "att_flow_convs_activation_time1_1_3", "config": {"trainable": true, "name": "att_flow_convs_activation_time1_1_3", "activation": "relu"}}, {"inbound_nodes": [[["multiply_1", 0, 0, {}]]], "class_name": "Conv2D", "name": "nbhd_convs_time1_1", "config": {"trainable": true, "dilation_rate": [1, 1], "activation": "linear", "kernel_constraint": null, "bias_regularizer": null, "data_format": "channels_last", "kernel_initializer": {"class_name": "VarianceScaling", "config": {"mode": "fan_avg", "scale": 1.0, "distribution": "uniform", "seed": null}}, "kernel_regularizer": null, "use_bias": true, "bias_initializer": {"class_name": "Zeros", "config": {}}, "name": "nbhd_convs_time1_1", "bias_constraint": null, "filters": 64, "activity_regularizer": null, "strides": [1, 1], "kernel_size": [3, 3], "padding": "same"}}, {"inbound_nodes": [[["flow_convs_time1_1", 0, 0, {}]]], "class_name": "Activation", "name": "flow_convs_activation_time1_1", "config": {"trainable": true, "name": "flow_convs_activation_time1_1", "activation": "relu"}}, {"inbound_nodes": [[["multiply_2", 0, 0, {}]]], "class_name": "Conv2D", "name": "nbhd_convs_time1_2", "config": {"trainable": true, "dilation_rate": [1, 1], "activation": "linear", "kernel_constraint": null, "bias_regularizer": null, "data_format": "channels_last", "kernel_initializer": {"class_name": "VarianceScaling", "config": {"mode": "fan_avg", "scale": 1.0, "distribution": "uniform", "seed": null}}, "kernel_regularizer": null, "use_bias": true, "bias_initializer": {"class_name": "Zeros", "config": {}}, "name": "nbhd_convs_time1_2", "bias_constraint": null, "filters": 64, "activity_regularizer": null, "strides": [1, 1], "kernel_size": [3, 3], "padding": "same"}}, {"inbound_nodes": [[["flow_convs_time1_2", 0, 0, {}]]], "class_name": "Activation", "name": "flow_convs_activation_time1_2", "config": {"trainable": true, "name": "flow_convs_activation_time1_2", "activation": "relu"}}, {"inbound_nodes": [[["multiply_3", 0, 0, {}]]], "class_name": "Conv2D", "name": "nbhd_convs_time1_3", "config": {"trainable": true, "dilation_rate": [1, 1], "activation": "linear", "kernel_constraint": null, "bias_regularizer": null, "data_format": "channels_last", "kernel_initializer": {"class_name": "VarianceScaling", "config": {"mode": "fan_avg", "scale": 1.0, "distribution": "uniform", "seed": null}}, "kernel_regularizer": null, "use_bias": true, "bias_initializer": {"class_name": "Zeros", "config": {}}, "name": "nbhd_convs_time1_3", "bias_constraint": null, "filters": 64, "activity_regularizer": null, "strides": [1, 1], "kernel_size": [3, 3], "padding": "same"}}, {"inbound_nodes": [[["flow_convs_time1_3", 0, 0, {}]]], "class_name": "Activation", "name": "flow_convs_activation_time1_3", "config": {"trainable": true, "name": "flow_convs_activation_time1_3", "activation": "relu"}}, {"inbound_nodes": [[["multiply_4", 0, 0, {}]]], "class_name": "Conv2D", "name": "nbhd_convs_time1_4", "config": {"trainable": true, "dilation_rate": [1, 1], "activation": "linear", "kernel_constraint": null, "bias_regularizer": null, "data_format": "channels_last", "kernel_initializer": {"class_name": "VarianceScaling", "config": {"mode": "fan_avg", "scale": 1.0, "distribution": "uniform", "seed": null}}, "kernel_regularizer": null, "use_bias": true, "bias_initializer": {"class_name": "Zeros", "config": {}}, "name": "nbhd_convs_time1_4", "bias_constraint": null, "filters": 64, "activity_regularizer": null, "strides": [1, 1], "kernel_size": [3, 3], "padding": "same"}}, {"inbound_nodes": [[["flow_convs_time1_4", 0, 0, {}]]], "class_name": "Activation", "name": "flow_convs_activation_time1_4", "config": {"trainable": true, "name": "flow_convs_activation_time1_4", "activation": "relu"}}, {"inbound_nodes": [[["multiply_5", 0, 0, {}]]], "class_name": "Conv2D", "name": "nbhd_convs_time1_5", "config": {"trainable": true, "dilation_rate": [1, 1], "activation": "linear", "kernel_constraint": null, "bias_regularizer": null, "data_format": "channels_last", "kernel_initializer": {"class_name": "VarianceScaling", "config": {"mode": "fan_avg", "scale": 1.0, "distribution": "uniform", "seed": null}}, "kernel_regularizer": null, "use_bias": true, "bias_initializer": {"class_name": "Zeros", "config": {}}, "name": "nbhd_convs_time1_5", "bias_constraint": null, "filters": 64, "activity_regularizer": null, "strides": [1, 1], "kernel_size": [3, 3], "padding": "same"}}, {"inbound_nodes": [[["flow_convs_time1_5", 0, 0, {}]]], "class_name": "Activation", "name": "flow_convs_activation_time1_5", "config": {"trainable": true, "name": "flow_convs_activation_time1_5", "activation": "relu"}}, {"inbound_nodes": [[["multiply_6", 0, 0, {}]]], "class_name": "Conv2D", "name": "nbhd_convs_time1_6", "config": {"trainable": true, "dilation_rate": [1, 1], "activation": "linear", "kernel_constraint": null, "bias_regularizer": null, "data_format": "channels_last", "kernel_initializer": {"class_name": "VarianceScaling", "config": {"mode": "fan_avg", "scale": 1.0, "distribution": "uniform", "seed": null}}, "kernel_regularizer": null, "use_bias": true, "bias_initializer": {"class_name": "Zeros", "config": {}}, "name": "nbhd_convs_time1_6", "bias_constraint": null, "filters": 64, "activity_regularizer": null, "strides": [1, 1], "kernel_size": [3, 3], "padding": "same"}}, {"inbound_nodes": [[["flow_convs_time1_6", 0, 0, {}]]], "class_name": "Activation", "name": "flow_convs_activation_time1_6", "config": {"trainable": true, "name": "flow_convs_activation_time1_6", "activation": "relu"}}, {"inbound_nodes": [[["multiply_7", 0, 0, {}]]], "class_name": "Conv2D", "name": "nbhd_convs_time1_7", "config": {"trainable": true, "dilation_rate": [1, 1], "activation": "linear", "kernel_constraint": null, "bias_regularizer": null, "data_format": "channels_last", "kernel_initializer": {"class_name": "VarianceScaling", "config": {"mode": "fan_avg", "scale": 1.0, "distribution": "uniform", "seed": null}}, "kernel_regularizer": null, "use_bias": true, "bias_initializer": {"class_name": "Zeros", "config": {}}, "name": "nbhd_convs_time1_7", "bias_constraint": null, "filters": 64, "activity_regularizer": null, "strides": [1, 1], "kernel_size": [3, 3], "padding": "same"}}, {"inbound_nodes": [[["flow_convs_time1_7", 0, 0, {}]]], "class_name": "Activation", "name": "flow_convs_activation_time1_7", "config": {"trainable": true, "name": "flow_convs_activation_time1_7", "activation": "relu"}}, {"inbound_nodes": [[["multiply_25", 0, 0, {}]]], "class_name": "Conv2D", "name": "att_nbhd_convs_time1_2_1", "config": {"trainable": true, "dilation_rate": [1, 1], "activation": "linear", "kernel_constraint": null, "bias_regularizer": null, "data_format": "channels_last", "kernel_initializer": {"class_name": "VarianceScaling", "config": {"mode": "fan_avg", "scale": 1.0, "distribution": "uniform", "seed": null}}, "kernel_regularizer": null, "use_bias": true, "bias_initializer": {"class_name": "Zeros", "config": {}}, "name": "att_nbhd_convs_time1_2_1", "bias_constraint": null, "filters": 64, "activity_regularizer": null, "strides": [1, 1], "kernel_size": [3, 3], "padding": "same"}}, {"inbound_nodes": [[["att_flow_convs_time1_2_1", 0, 0, {}]]], "class_name": "Activation", "name": "att_flow_convs_activation_time1_2_1", "config": {"trainable": true, "name": "att_flow_convs_activation_time1_2_1", "activation": "relu"}}, {"inbound_nodes": [[["multiply_26", 0, 0, {}]]], "class_name": "Conv2D", "name": "att_nbhd_convs_time1_2_2", "config": {"trainable": true, "dilation_rate": [1, 1], "activation": "linear", "kernel_constraint": null, "bias_regularizer": null, "data_format": "channels_last", "kernel_initializer": {"class_name": "VarianceScaling", "config": {"mode": "fan_avg", "scale": 1.0, "distribution": "uniform", "seed": null}}, "kernel_regularizer": null, "use_bias": true, "bias_initializer": {"class_name": "Zeros", "config": {}}, "name": "att_nbhd_convs_time1_2_2", "bias_constraint": null, "filters": 64, "activity_regularizer": null, "strides": [1, 1], "kernel_size": [3, 3], "padding": "same"}}, {"inbound_nodes": [[["att_flow_convs_time1_2_2", 0, 0, {}]]], "class_name": "Activation", "name": "att_flow_convs_activation_time1_2_2", "config": {"trainable": true, "name": "att_flow_convs_activation_time1_2_2", "activation": "relu"}}, {"inbound_nodes": [[["multiply_27", 0, 0, {}]]], "class_name": "Conv2D", "name": "att_nbhd_convs_time1_2_3", "config": {"trainable": true, "dilation_rate": [1, 1], "activation": "linear", "kernel_constraint": null, "bias_regularizer": null, "data_format": "channels_last", "kernel_initializer": {"class_name": "VarianceScaling", "config": {"mode": "fan_avg", "scale": 1.0, "distribution": "uniform", "seed": null}}, "kernel_regularizer": null, "use_bias": true, "bias_initializer": {"class_name": "Zeros", "config": {}}, "name": "att_nbhd_convs_time1_2_3", "bias_constraint": null, "filters": 64, "activity_regularizer": null, "strides": [1, 1], "kernel_size": [3, 3], "padding": "same"}}, {"inbound_nodes": [[["att_flow_convs_time1_2_3", 0, 0, {}]]], "class_name": "Activation", "name": "att_flow_convs_activation_time1_2_3", "config": {"trainable": true, "name": "att_flow_convs_activation_time1_2_3", "activation": "relu"}}, {"inbound_nodes": [[["multiply_28", 0, 0, {}]]], "class_name": "Conv2D", "name": "att_nbhd_convs_time1_3_1", "config": {"trainable": true, "dilation_rate": [1, 1], "activation": "linear", "kernel_constraint": null, "bias_regularizer": null, "data_format": "channels_last", "kernel_initializer": {"class_name": "VarianceScaling", "config": {"mode": "fan_avg", "scale": 1.0, "distribution": "uniform", "seed": null}}, "kernel_regularizer": null, "use_bias": true, "bias_initializer": {"class_name": "Zeros", "config": {}}, "name": "att_nbhd_convs_time1_3_1", "bias_constraint": null, "filters": 64, "activity_regularizer": null, "strides": [1, 1], "kernel_size": [3, 3], "padding": "same"}}, {"inbound_nodes": [[["att_flow_convs_time1_3_1", 0, 0, {}]]], "class_name": "Activation", "name": "att_flow_convs_activation_time1_3_1", "config": {"trainable": true, "name": "att_flow_convs_activation_time1_3_1", "activation": "relu"}}, {"inbound_nodes": [[["multiply_29", 0, 0, {}]]], "class_name": "Conv2D", "name": "att_nbhd_convs_time1_3_2", "config": {"trainable": true, "dilation_rate": [1, 1], "activation": "linear", "kernel_constraint": null, "bias_regularizer": null, "data_format": "channels_last", "kernel_initializer": {"class_name": "VarianceScaling", "config": {"mode": "fan_avg", "scale": 1.0, "distribution": "uniform", "seed": null}}, "kernel_regularizer": null, "use_bias": true, "bias_initializer": {"class_name": "Zeros", "config": {}}, "name": "att_nbhd_convs_time1_3_2", "bias_constraint": null, "filters": 64, "activity_regularizer": null, "strides": [1, 1], "kernel_size": [3, 3], "padding": "same"}}, {"inbound_nodes": [[["att_flow_convs_time1_3_2", 0, 0, {}]]], "class_name": "Activation", "name": "att_flow_convs_activation_time1_3_2", "config": {"trainable": true, "name": "att_flow_convs_activation_time1_3_2", "activation": "relu"}}, {"inbound_nodes": [[["multiply_30", 0, 0, {}]]], "class_name": "Conv2D", "name": "att_nbhd_convs_time1_3_3", "config": {"trainable": true, "dilation_rate": [1, 1], "activation": "linear", "kernel_constraint": null, "bias_regularizer": null, "data_format": "channels_last", "kernel_initializer": {"class_name": "VarianceScaling", "config": {"mode": "fan_avg", "scale": 1.0, "distribution": "uniform", "seed": null}}, "kernel_regularizer": null, "use_bias": true, "bias_initializer": {"class_name": "Zeros", "config": {}}, "name": "att_nbhd_convs_time1_3_3", "bias_constraint": null, "filters": 64, "activity_regularizer": null, "strides": [1, 1], "kernel_size": [3, 3], "padding": "same"}}, {"inbound_nodes": [[["att_flow_convs_time1_3_3", 0, 0, {}]]], "class_name": "Activation", "name": "att_flow_convs_activation_time1_3_3", "config": {"trainable": true, "name": "att_flow_convs_activation_time1_3_3", "activation": "relu"}}, {"inbound_nodes": [[["att_nbhd_convs_time1_1_1", 0, 0, {}]]], "class_name": "Activation", "name": "att_nbhd_convs_activation_time1_1_1", "config": {"trainable": true, "name": "att_nbhd_convs_activation_time1_1_1", "activation": "relu"}}, {"inbound_nodes": [[["att_flow_convs_activation_time1_1_1", 0, 0, {}]]], "class_name": "Activation", "name": "att_flow_gate1_1_1", "config": {"trainable": true, "name": "att_flow_gate1_1_1", "activation": "sigmoid"}}, {"inbound_nodes": [[["att_nbhd_convs_time1_1_2", 0, 0, {}]]], "class_name": "Activation", "name": "att_nbhd_convs_activation_time1_1_2", "config": {"trainable": true, "name": "att_nbhd_convs_activation_time1_1_2", "activation": "relu"}}, {"inbound_nodes": [[["att_flow_convs_activation_time1_1_2", 0, 0, {}]]], "class_name": "Activation", "name": "att_flow_gate1_1_2", "config": {"trainable": true, "name": "att_flow_gate1_1_2", "activation": "sigmoid"}}, {"inbound_nodes": [[["att_nbhd_convs_time1_1_3", 0, 0, {}]]], "class_name": "Activation", "name": "att_nbhd_convs_activation_time1_1_3", "config": {"trainable": true, "name": "att_nbhd_convs_activation_time1_1_3", "activation": "relu"}}, {"inbound_nodes": [[["att_flow_convs_activation_time1_1_3", 0, 0, {}]]], "class_name": "Activation", "name": "att_flow_gate1_1_3", "config": {"trainable": true, "name": "att_flow_gate1_1_3", "activation": "sigmoid"}}, {"inbound_nodes": [[["nbhd_convs_time1_1", 0, 0, {}]]], "class_name": "Activation", "name": "nbhd_convs_activation_time1_1", "config": {"trainable": true, "name": "nbhd_convs_activation_time1_1", "activation": "relu"}}, {"inbound_nodes": [[["flow_convs_activation_time1_1", 0, 0, {}]]], "class_name": "Activation", "name": "flow_gate1_1", "config": {"trainable": true, "name": "flow_gate1_1", "activation": "sigmoid"}}, {"inbound_nodes": [[["nbhd_convs_time1_2", 0, 0, {}]]], "class_name": "Activation", "name": "nbhd_convs_activation_time1_2", "config": {"trainable": true, "name": "nbhd_convs_activation_time1_2", "activation": "relu"}}, {"inbound_nodes": [[["flow_convs_activation_time1_2", 0, 0, {}]]], "class_name": "Activation", "name": "flow_gate1_2", "config": {"trainable": true, "name": "flow_gate1_2", "activation": "sigmoid"}}, {"inbound_nodes": [[["nbhd_convs_time1_3", 0, 0, {}]]], "class_name": "Activation", "name": "nbhd_convs_activation_time1_3", "config": {"trainable": true, "name": "nbhd_convs_activation_time1_3", "activation": "relu"}}, {"inbound_nodes": [[["flow_convs_activation_time1_3", 0, 0, {}]]], "class_name": "Activation", "name": "flow_gate1_3", "config": {"trainable": true, "name": "flow_gate1_3", "activation": "sigmoid"}}, {"inbound_nodes": [[["nbhd_convs_time1_4", 0, 0, {}]]], "class_name": "Activation", "name": "nbhd_convs_activation_time1_4", "config": {"trainable": true, "name": "nbhd_convs_activation_time1_4", "activation": "relu"}}, {"inbound_nodes": [[["flow_convs_activation_time1_4", 0, 0, {}]]], "class_name": "Activation", "name": "flow_gate1_4", "config": {"trainable": true, "name": "flow_gate1_4", "activation": "sigmoid"}}, {"inbound_nodes": [[["nbhd_convs_time1_5", 0, 0, {}]]], "class_name": "Activation", "name": "nbhd_convs_activation_time1_5", "config": {"trainable": true, "name": "nbhd_convs_activation_time1_5", "activation": "relu"}}, {"inbound_nodes": [[["flow_convs_activation_time1_5", 0, 0, {}]]], "class_name": "Activation", "name": "flow_gate1_5", "config": {"trainable": true, "name": "flow_gate1_5", "activation": "sigmoid"}}, {"inbound_nodes": [[["nbhd_convs_time1_6", 0, 0, {}]]], "class_name": "Activation", "name": "nbhd_convs_activation_time1_6", "config": {"trainable": true, "name": "nbhd_convs_activation_time1_6", "activation": "relu"}}, {"inbound_nodes": [[["flow_convs_activation_time1_6", 0, 0, {}]]], "class_name": "Activation", "name": "flow_gate1_6", "config": {"trainable": true, "name": "flow_gate1_6", "activation": "sigmoid"}}, {"inbound_nodes": [[["nbhd_convs_time1_7", 0, 0, {}]]], "class_name": "Activation", "name": "nbhd_convs_activation_time1_7", "config": {"trainable": true, "name": "nbhd_convs_activation_time1_7", "activation": "relu"}}, {"inbound_nodes": [[["flow_convs_activation_time1_7", 0, 0, {}]]], "class_name": "Activation", "name": "flow_gate1_7", "config": {"trainable": true, "name": "flow_gate1_7", "activation": "sigmoid"}}, {"inbound_nodes": [[["att_nbhd_convs_time1_2_1", 0, 0, {}]]], "class_name": "Activation", "name": "att_nbhd_convs_activation_time1_2_1", "config": {"trainable": true, "name": "att_nbhd_convs_activation_time1_2_1", "activation": "relu"}}, {"inbound_nodes": [[["att_flow_convs_activation_time1_2_1", 0, 0, {}]]], "class_name": "Activation", "name": "att_flow_gate1_2_1", "config": {"trainable": true, "name": "att_flow_gate1_2_1", "activation": "sigmoid"}}, {"inbound_nodes": [[["att_nbhd_convs_time1_2_2", 0, 0, {}]]], "class_name": "Activation", "name": "att_nbhd_convs_activation_time1_2_2", "config": {"trainable": true, "name": "att_nbhd_convs_activation_time1_2_2", "activation": "relu"}}, {"inbound_nodes": [[["att_flow_convs_activation_time1_2_2", 0, 0, {}]]], "class_name": "Activation", "name": "att_flow_gate1_2_2", "config": {"trainable": true, "name": "att_flow_gate1_2_2", "activation": "sigmoid"}}, {"inbound_nodes": [[["att_nbhd_convs_time1_2_3", 0, 0, {}]]], "class_name": "Activation", "name": "att_nbhd_convs_activation_time1_2_3", "config": {"trainable": true, "name": "att_nbhd_convs_activation_time1_2_3", "activation": "relu"}}, {"inbound_nodes": [[["att_flow_convs_activation_time1_2_3", 0, 0, {}]]], "class_name": "Activation", "name": "att_flow_gate1_2_3", "config": {"trainable": true, "name": "att_flow_gate1_2_3", "activation": "sigmoid"}}, {"inbound_nodes": [[["att_nbhd_convs_time1_3_1", 0, 0, {}]]], "class_name": "Activation", "name": "att_nbhd_convs_activation_time1_3_1", "config": {"trainable": true, "name": "att_nbhd_convs_activation_time1_3_1", "activation": "relu"}}, {"inbound_nodes": [[["att_flow_convs_activation_time1_3_1", 0, 0, {}]]], "class_name": "Activation", "name": "att_flow_gate1_3_1", "config": {"trainable": true, "name": "att_flow_gate1_3_1", "activation": "sigmoid"}}, {"inbound_nodes": [[["att_nbhd_convs_time1_3_2", 0, 0, {}]]], "class_name": "Activation", "name": "att_nbhd_convs_activation_time1_3_2", "config": {"trainable": true, "name": "att_nbhd_convs_activation_time1_3_2", "activation": "relu"}}, {"inbound_nodes": [[["att_flow_convs_activation_time1_3_2", 0, 0, {}]]], "class_name": "Activation", "name": "att_flow_gate1_3_2", "config": {"trainable": true, "name": "att_flow_gate1_3_2", "activation": "sigmoid"}}, {"inbound_nodes": [[["att_nbhd_convs_time1_3_3", 0, 0, {}]]], "class_name": "Activation", "name": "att_nbhd_convs_activation_time1_3_3", "config": {"trainable": true, "name": "att_nbhd_convs_activation_time1_3_3", "activation": "relu"}}, {"inbound_nodes": [[["att_flow_convs_activation_time1_3_3", 0, 0, {}]]], "class_name": "Activation", "name": "att_flow_gate1_3_3", "config": {"trainable": true, "name": "att_flow_gate1_3_3", "activation": "sigmoid"}}, {"inbound_nodes": [[["att_nbhd_convs_activation_time1_1_1", 0, 0, {}], ["att_flow_gate1_1_1", 0, 0, {}]]], "class_name": "Multiply", "name": "multiply_31", "config": {"trainable": true, "name": "multiply_31"}}, {"inbound_nodes": [[["att_flow_convs_activation_time1_1_1", 0, 0, {}]]], "class_name": "Conv2D", "name": "att_flow_convs_time2_1_1", "config": {"trainable": true, "dilation_rate": [1, 1], "activation": "linear", "kernel_constraint": null, "bias_regularizer": null, "data_format": "channels_last", "kernel_initializer": {"class_name": "VarianceScaling", "config": {"mode": "fan_avg", "scale": 1.0, "distribution": "uniform", "seed": null}}, "kernel_regularizer": null, "use_bias": true, "bias_initializer": {"class_name": "Zeros", "config": {}}, "name": "att_flow_convs_time2_1_1", "bias_constraint": null, "filters": 64, "activity_regularizer": null, "strides": [1, 1], "kernel_size": [3, 3], "padding": "same"}}, {"inbound_nodes": [[["att_nbhd_convs_activation_time1_1_2", 0, 0, {}], ["att_flow_gate1_1_2", 0, 0, {}]]], "class_name": "Multiply", "name": "multiply_32", "config": {"trainable": true, "name": "multiply_32"}}, {"inbound_nodes": [[["att_flow_convs_activation_time1_1_2", 0, 0, {}]]], "class_name": "Conv2D", "name": "att_flow_convs_time2_1_2", "config": {"trainable": true, "dilation_rate": [1, 1], "activation": "linear", "kernel_constraint": null, "bias_regularizer": null, "data_format": "channels_last", "kernel_initializer": {"class_name": "VarianceScaling", "config": {"mode": "fan_avg", "scale": 1.0, "distribution": "uniform", "seed": null}}, "kernel_regularizer": null, "use_bias": true, "bias_initializer": {"class_name": "Zeros", "config": {}}, "name": "att_flow_convs_time2_1_2", "bias_constraint": null, "filters": 64, "activity_regularizer": null, "strides": [1, 1], "kernel_size": [3, 3], "padding": "same"}}, {"inbound_nodes": [[["att_nbhd_convs_activation_time1_1_3", 0, 0, {}], ["att_flow_gate1_1_3", 0, 0, {}]]], "class_name": "Multiply", "name": "multiply_33", "config": {"trainable": true, "name": "multiply_33"}}, {"inbound_nodes": [[["att_flow_convs_activation_time1_1_3", 0, 0, {}]]], "class_name": "Conv2D", "name": "att_flow_convs_time2_1_3", "config": {"trainable": true, "dilation_rate": [1, 1], "activation": "linear", "kernel_constraint": null, "bias_regularizer": null, "data_format": "channels_last", "kernel_initializer": {"class_name": "VarianceScaling", "config": {"mode": "fan_avg", "scale": 1.0, "distribution": "uniform", "seed": null}}, "kernel_regularizer": null, "use_bias": true, "bias_initializer": {"class_name": "Zeros", "config": {}}, "name": "att_flow_convs_time2_1_3", "bias_constraint": null, "filters": 64, "activity_regularizer": null, "strides": [1, 1], "kernel_size": [3, 3], "padding": "same"}}, {"inbound_nodes": [[["nbhd_convs_activation_time1_1", 0, 0, {}], ["flow_gate1_1", 0, 0, {}]]], "class_name": "Multiply", "name": "multiply_8", "config": {"trainable": true, "name": "multiply_8"}}, {"inbound_nodes": [[["flow_volume_input_time_1", 0, 0, {}]]], "class_name": "Conv2D", "name": "flow_convs_time2_1", "config": {"trainable": true, "dilation_rate": [1, 1], "activation": "linear", "kernel_constraint": null, "bias_regularizer": null, "data_format": "channels_last", "kernel_initializer": {"class_name": "VarianceScaling", "config": {"mode": "fan_avg", "scale": 1.0, "distribution": "uniform", "seed": null}}, "kernel_regularizer": null, "use_bias": true, "bias_initializer": {"class_name": "Zeros", "config": {}}, "name": "flow_convs_time2_1", "bias_constraint": null, "filters": 64, "activity_regularizer": null, "strides": [1, 1], "kernel_size": [3, 3], "padding": "same"}}, {"inbound_nodes": [[["nbhd_convs_activation_time1_2", 0, 0, {}], ["flow_gate1_2", 0, 0, {}]]], "class_name": "Multiply", "name": "multiply_9", "config": {"trainable": true, "name": "multiply_9"}}, {"inbound_nodes": [[["flow_volume_input_time_2", 0, 0, {}]]], "class_name": "Conv2D", "name": "flow_convs_time2_2", "config": {"trainable": true, "dilation_rate": [1, 1], "activation": "linear", "kernel_constraint": null, "bias_regularizer": null, "data_format": "channels_last", "kernel_initializer": {"class_name": "VarianceScaling", "config": {"mode": "fan_avg", "scale": 1.0, "distribution": "uniform", "seed": null}}, "kernel_regularizer": null, "use_bias": true, "bias_initializer": {"class_name": "Zeros", "config": {}}, "name": "flow_convs_time2_2", "bias_constraint": null, "filters": 64, "activity_regularizer": null, "strides": [1, 1], "kernel_size": [3, 3], "padding": "same"}}, {"inbound_nodes": [[["nbhd_convs_activation_time1_3", 0, 0, {}], ["flow_gate1_3", 0, 0, {}]]], "class_name": "Multiply", "name": "multiply_10", "config": {"trainable": true, "name": "multiply_10"}}, {"inbound_nodes": [[["flow_volume_input_time_3", 0, 0, {}]]], "class_name": "Conv2D", "name": "flow_convs_time2_3", "config": {"trainable": true, "dilation_rate": [1, 1], "activation": "linear", "kernel_constraint": null, "bias_regularizer": null, "data_format": "channels_last", "kernel_initializer": {"class_name": "VarianceScaling", "config": {"mode": "fan_avg", "scale": 1.0, "distribution": "uniform", "seed": null}}, "kernel_regularizer": null, "use_bias": true, "bias_initializer": {"class_name": "Zeros", "config": {}}, "name": "flow_convs_time2_3", "bias_constraint": null, "filters": 64, "activity_regularizer": null, "strides": [1, 1], "kernel_size": [3, 3], "padding": "same"}}, {"inbound_nodes": [[["nbhd_convs_activation_time1_4", 0, 0, {}], ["flow_gate1_4", 0, 0, {}]]], "class_name": "Multiply", "name": "multiply_11", "config": {"trainable": true, "name": "multiply_11"}}, {"inbound_nodes": [[["flow_volume_input_time_4", 0, 0, {}]]], "class_name": "Conv2D", "name": "flow_convs_time2_4", "config": {"trainable": true, "dilation_rate": [1, 1], "activation": "linear", "kernel_constraint": null, "bias_regularizer": null, "data_format": "channels_last", "kernel_initializer": {"class_name": "VarianceScaling", "config": {"mode": "fan_avg", "scale": 1.0, "distribution": "uniform", "seed": null}}, "kernel_regularizer": null, "use_bias": true, "bias_initializer": {"class_name": "Zeros", "config": {}}, "name": "flow_convs_time2_4", "bias_constraint": null, "filters": 64, "activity_regularizer": null, "strides": [1, 1], "kernel_size": [3, 3], "padding": "same"}}, {"inbound_nodes": [[["nbhd_convs_activation_time1_5", 0, 0, {}], ["flow_gate1_5", 0, 0, {}]]], "class_name": "Multiply", "name": "multiply_12", "config": {"trainable": true, "name": "multiply_12"}}, {"inbound_nodes": [[["flow_volume_input_time_5", 0, 0, {}]]], "class_name": "Conv2D", "name": "flow_convs_time2_5", "config": {"trainable": true, "dilation_rate": [1, 1], "activation": "linear", "kernel_constraint": null, "bias_regularizer": null, "data_format": "channels_last", "kernel_initializer": {"class_name": "VarianceScaling", "config": {"mode": "fan_avg", "scale": 1.0, "distribution": "uniform", "seed": null}}, "kernel_regularizer": null, "use_bias": true, "bias_initializer": {"class_name": "Zeros", "config": {}}, "name": "flow_convs_time2_5", "bias_constraint": null, "filters": 64, "activity_regularizer": null, "strides": [1, 1], "kernel_size": [3, 3], "padding": "same"}}, {"inbound_nodes": [[["nbhd_convs_activation_time1_6", 0, 0, {}], ["flow_gate1_6", 0, 0, {}]]], "class_name": "Multiply", "name": "multiply_13", "config": {"trainable": true, "name": "multiply_13"}}, {"inbound_nodes": [[["flow_volume_input_time_6", 0, 0, {}]]], "class_name": "Conv2D", "name": "flow_convs_time2_6", "config": {"trainable": true, "dilation_rate": [1, 1], "activation": "linear", "kernel_constraint": null, "bias_regularizer": null, "data_format": "channels_last", "kernel_initializer": {"class_name": "VarianceScaling", "config": {"mode": "fan_avg", "scale": 1.0, "distribution": "uniform", "seed": null}}, "kernel_regularizer": null, "use_bias": true, "bias_initializer": {"class_name": "Zeros", "config": {}}, "name": "flow_convs_time2_6", "bias_constraint": null, "filters": 64, "activity_regularizer": null, "strides": [1, 1], "kernel_size": [3, 3], "padding": "same"}}, {"inbound_nodes": [[["nbhd_convs_activation_time1_7", 0, 0, {}], ["flow_gate1_7", 0, 0, {}]]], "class_name": "Multiply", "name": "multiply_14", "config": {"trainable": true, "name": "multiply_14"}}, {"inbound_nodes": [[["flow_volume_input_time_7", 0, 0, {}]]], "class_name": "Conv2D", "name": "flow_convs_time2_7", "config": {"trainable": true, "dilation_rate": [1, 1], "activation": "linear", "kernel_constraint": null, "bias_regularizer": null, "data_format": "channels_last", "kernel_initializer": {"class_name": "VarianceScaling", "config": {"mode": "fan_avg", "scale": 1.0, "distribution": "uniform", "seed": null}}, "kernel_regularizer": null, "use_bias": true, "bias_initializer": {"class_name": "Zeros", "config": {}}, "name": "flow_convs_time2_7", "bias_constraint": null, "filters": 64, "activity_regularizer": null, "strides": [1, 1], "kernel_size": [3, 3], "padding": "same"}}, {"inbound_nodes": [[["att_nbhd_convs_activation_time1_2_1", 0, 0, {}], ["att_flow_gate1_2_1", 0, 0, {}]]], "class_name": "Multiply", "name": "multiply_34", "config": {"trainable": true, "name": "multiply_34"}}, {"inbound_nodes": [[["att_flow_convs_activation_time1_2_1", 0, 0, {}]]], "class_name": "Conv2D", "name": "att_flow_convs_time2_2_1", "config": {"trainable": true, "dilation_rate": [1, 1], "activation": "linear", "kernel_constraint": null, "bias_regularizer": null, "data_format": "channels_last", "kernel_initializer": {"class_name": "VarianceScaling", "config": {"mode": "fan_avg", "scale": 1.0, "distribution": "uniform", "seed": null}}, "kernel_regularizer": null, "use_bias": true, "bias_initializer": {"class_name": "Zeros", "config": {}}, "name": "att_flow_convs_time2_2_1", "bias_constraint": null, "filters": 64, "activity_regularizer": null, "strides": [1, 1], "kernel_size": [3, 3], "padding": "same"}}, {"inbound_nodes": [[["att_nbhd_convs_activation_time1_2_2", 0, 0, {}], ["att_flow_gate1_2_2", 0, 0, {}]]], "class_name": "Multiply", "name": "multiply_35", "config": {"trainable": true, "name": "multiply_35"}}, {"inbound_nodes": [[["att_flow_convs_activation_time1_2_2", 0, 0, {}]]], "class_name": "Conv2D", "name": "att_flow_convs_time2_2_2", "config": {"trainable": true, "dilation_rate": [1, 1], "activation": "linear", "kernel_constraint": null, "bias_regularizer": null, "data_format": "channels_last", "kernel_initializer": {"class_name": "VarianceScaling", "config": {"mode": "fan_avg", "scale": 1.0, "distribution": "uniform", "seed": null}}, "kernel_regularizer": null, "use_bias": true, "bias_initializer": {"class_name": "Zeros", "config": {}}, "name": "att_flow_convs_time2_2_2", "bias_constraint": null, "filters": 64, "activity_regularizer": null, "strides": [1, 1], "kernel_size": [3, 3], "padding": "same"}}, {"inbound_nodes": [[["att_nbhd_convs_activation_time1_2_3", 0, 0, {}], ["att_flow_gate1_2_3", 0, 0, {}]]], "class_name": "Multiply", "name": "multiply_36", "config": {"trainable": true, "name": "multiply_36"}}, {"inbound_nodes": [[["att_flow_convs_activation_time1_2_3", 0, 0, {}]]], "class_name": "Conv2D", "name": "att_flow_convs_time2_2_3", "config": {"trainable": true, "dilation_rate": [1, 1], "activation": "linear", "kernel_constraint": null, "bias_regularizer": null, "data_format": "channels_last", "kernel_initializer": {"class_name": "VarianceScaling", "config": {"mode": "fan_avg", "scale": 1.0, "distribution": "uniform", "seed": null}}, "kernel_regularizer": null, "use_bias": true, "bias_initializer": {"class_name": "Zeros", "config": {}}, "name": "att_flow_convs_time2_2_3", "bias_constraint": null, "filters": 64, "activity_regularizer": null, "strides": [1, 1], "kernel_size": [3, 3], "padding": "same"}}, {"inbound_nodes": [[["att_nbhd_convs_activation_time1_3_1", 0, 0, {}], ["att_flow_gate1_3_1", 0, 0, {}]]], "class_name": "Multiply", "name": "multiply_37", "config": {"trainable": true, "name": "multiply_37"}}, {"inbound_nodes": [[["att_flow_convs_activation_time1_3_1", 0, 0, {}]]], "class_name": "Conv2D", "name": "att_flow_convs_time2_3_1", "config": {"trainable": true, "dilation_rate": [1, 1], "activation": "linear", "kernel_constraint": null, "bias_regularizer": null, "data_format": "channels_last", "kernel_initializer": {"class_name": "VarianceScaling", "config": {"mode": "fan_avg", "scale": 1.0, "distribution": "uniform", "seed": null}}, "kernel_regularizer": null, "use_bias": true, "bias_initializer": {"class_name": "Zeros", "config": {}}, "name": "att_flow_convs_time2_3_1", "bias_constraint": null, "filters": 64, "activity_regularizer": null, "strides": [1, 1], "kernel_size": [3, 3], "padding": "same"}}, {"inbound_nodes": [[["att_nbhd_convs_activation_time1_3_2", 0, 0, {}], ["att_flow_gate1_3_2", 0, 0, {}]]], "class_name": "Multiply", "name": "multiply_38", "config": {"trainable": true, "name": "multiply_38"}}, {"inbound_nodes": [[["att_flow_convs_activation_time1_3_2", 0, 0, {}]]], "class_name": "Conv2D", "name": "att_flow_convs_time2_3_2", "config": {"trainable": true, "dilation_rate": [1, 1], "activation": "linear", "kernel_constraint": null, "bias_regularizer": null, "data_format": "channels_last", "kernel_initializer": {"class_name": "VarianceScaling", "config": {"mode": "fan_avg", "scale": 1.0, "distribution": "uniform", "seed": null}}, "kernel_regularizer": null, "use_bias": true, "bias_initializer": {"class_name": "Zeros", "config": {}}, "name": "att_flow_convs_time2_3_2", "bias_constraint": null, "filters": 64, "activity_regularizer": null, "strides": [1, 1], "kernel_size": [3, 3], "padding": "same"}}, {"inbound_nodes": [[["att_nbhd_convs_activation_time1_3_3", 0, 0, {}], ["att_flow_gate1_3_3", 0, 0, {}]]], "class_name": "Multiply", "name": "multiply_39", "config": {"trainable": true, "name": "multiply_39"}}, {"inbound_nodes": [[["att_flow_convs_activation_time1_3_3", 0, 0, {}]]], "class_name": "Conv2D", "name": "att_flow_convs_time2_3_3", "config": {"trainable": true, "dilation_rate": [1, 1], "activation": "linear", "kernel_constraint": null, "bias_regularizer": null, "data_format": "channels_last", "kernel_initializer": {"class_name": "VarianceScaling", "config": {"mode": "fan_avg", "scale": 1.0, "distribution": "uniform", "seed": null}}, "kernel_regularizer": null, "use_bias": true, "bias_initializer": {"class_name": "Zeros", "config": {}}, "name": "att_flow_convs_time2_3_3", "bias_constraint": null, "filters": 64, "activity_regularizer": null, "strides": [1, 1], "kernel_size": [3, 3], "padding": "same"}}, {"inbound_nodes": [[["multiply_31", 0, 0, {}]]], "class_name": "Conv2D", "name": "att_nbhd_convs_time2_1_1", "config": {"trainable": true, "dilation_rate": [1, 1], "activation": "linear", "kernel_constraint": null, "bias_regularizer": null, "data_format": "channels_last", "kernel_initializer": {"class_name": "VarianceScaling", "config": {"mode": "fan_avg", "scale": 1.0, "distribution": "uniform", "seed": null}}, "kernel_regularizer": null, "use_bias": true, "bias_initializer": {"class_name": "Zeros", "config": {}}, "name": "att_nbhd_convs_time2_1_1", "bias_constraint": null, "filters": 64, "activity_regularizer": null, "strides": [1, 1], "kernel_size": [3, 3], "padding": "same"}}, {"inbound_nodes": [[["att_flow_convs_time2_1_1", 0, 0, {}]]], "class_name": "Activation", "name": "att_flow_convs_activation_time2_1_1", "config": {"trainable": true, "name": "att_flow_convs_activation_time2_1_1", "activation": "relu"}}, {"inbound_nodes": [[["multiply_32", 0, 0, {}]]], "class_name": "Conv2D", "name": "att_nbhd_convs_time2_1_2", "config": {"trainable": true, "dilation_rate": [1, 1], "activation": "linear", "kernel_constraint": null, "bias_regularizer": null, "data_format": "channels_last", "kernel_initializer": {"class_name": "VarianceScaling", "config": {"mode": "fan_avg", "scale": 1.0, "distribution": "uniform", "seed": null}}, "kernel_regularizer": null, "use_bias": true, "bias_initializer": {"class_name": "Zeros", "config": {}}, "name": "att_nbhd_convs_time2_1_2", "bias_constraint": null, "filters": 64, "activity_regularizer": null, "strides": [1, 1], "kernel_size": [3, 3], "padding": "same"}}, {"inbound_nodes": [[["att_flow_convs_time2_1_2", 0, 0, {}]]], "class_name": "Activation", "name": "att_flow_convs_activation_time2_1_2", "config": {"trainable": true, "name": "att_flow_convs_activation_time2_1_2", "activation": "relu"}}, {"inbound_nodes": [[["multiply_33", 0, 0, {}]]], "class_name": "Conv2D", "name": "att_nbhd_convs_time2_1_3", "config": {"trainable": true, "dilation_rate": [1, 1], "activation": "linear", "kernel_constraint": null, "bias_regularizer": null, "data_format": "channels_last", "kernel_initializer": {"class_name": "VarianceScaling", "config": {"mode": "fan_avg", "scale": 1.0, "distribution": "uniform", "seed": null}}, "kernel_regularizer": null, "use_bias": true, "bias_initializer": {"class_name": "Zeros", "config": {}}, "name": "att_nbhd_convs_time2_1_3", "bias_constraint": null, "filters": 64, "activity_regularizer": null, "strides": [1, 1], "kernel_size": [3, 3], "padding": "same"}}, {"inbound_nodes": [[["att_flow_convs_time2_1_3", 0, 0, {}]]], "class_name": "Activation", "name": "att_flow_convs_activation_time2_1_3", "config": {"trainable": true, "name": "att_flow_convs_activation_time2_1_3", "activation": "relu"}}, {"inbound_nodes": [[["multiply_8", 0, 0, {}]]], "class_name": "Conv2D", "name": "nbhd_convs_time2_1", "config": {"trainable": true, "dilation_rate": [1, 1], "activation": "linear", "kernel_constraint": null, "bias_regularizer": null, "data_format": "channels_last", "kernel_initializer": {"class_name": "VarianceScaling", "config": {"mode": "fan_avg", "scale": 1.0, "distribution": "uniform", "seed": null}}, "kernel_regularizer": null, "use_bias": true, "bias_initializer": {"class_name": "Zeros", "config": {}}, "name": "nbhd_convs_time2_1", "bias_constraint": null, "filters": 64, "activity_regularizer": null, "strides": [1, 1], "kernel_size": [3, 3], "padding": "same"}}, {"inbound_nodes": [[["flow_convs_time2_1", 0, 0, {}]]], "class_name": "Activation", "name": "flow_convs_activation_time2_1", "config": {"trainable": true, "name": "flow_convs_activation_time2_1", "activation": "relu"}}, {"inbound_nodes": [[["multiply_9", 0, 0, {}]]], "class_name": "Conv2D", "name": "nbhd_convs_time2_2", "config": {"trainable": true, "dilation_rate": [1, 1], "activation": "linear", "kernel_constraint": null, "bias_regularizer": null, "data_format": "channels_last", "kernel_initializer": {"class_name": "VarianceScaling", "config": {"mode": "fan_avg", "scale": 1.0, "distribution": "uniform", "seed": null}}, "kernel_regularizer": null, "use_bias": true, "bias_initializer": {"class_name": "Zeros", "config": {}}, "name": "nbhd_convs_time2_2", "bias_constraint": null, "filters": 64, "activity_regularizer": null, "strides": [1, 1], "kernel_size": [3, 3], "padding": "same"}}, {"inbound_nodes": [[["flow_convs_time2_2", 0, 0, {}]]], "class_name": "Activation", "name": "flow_convs_activation_time2_2", "config": {"trainable": true, "name": "flow_convs_activation_time2_2", "activation": "relu"}}, {"inbound_nodes": [[["multiply_10", 0, 0, {}]]], "class_name": "Conv2D", "name": "nbhd_convs_time2_3", "config": {"trainable": true, "dilation_rate": [1, 1], "activation": "linear", "kernel_constraint": null, "bias_regularizer": null, "data_format": "channels_last", "kernel_initializer": {"class_name": "VarianceScaling", "config": {"mode": "fan_avg", "scale": 1.0, "distribution": "uniform", "seed": null}}, "kernel_regularizer": null, "use_bias": true, "bias_initializer": {"class_name": "Zeros", "config": {}}, "name": "nbhd_convs_time2_3", "bias_constraint": null, "filters": 64, "activity_regularizer": null, "strides": [1, 1], "kernel_size": [3, 3], "padding": "same"}}, {"inbound_nodes": [[["flow_convs_time2_3", 0, 0, {}]]], "class_name": "Activation", "name": "flow_convs_activation_time2_3", "config": {"trainable": true, "name": "flow_convs_activation_time2_3", "activation": "relu"}}, {"inbound_nodes": [[["multiply_11", 0, 0, {}]]], "class_name": "Conv2D", "name": "nbhd_convs_time2_4", "config": {"trainable": true, "dilation_rate": [1, 1], "activation": "linear", "kernel_constraint": null, "bias_regularizer": null, "data_format": "channels_last", "kernel_initializer": {"class_name": "VarianceScaling", "config": {"mode": "fan_avg", "scale": 1.0, "distribution": "uniform", "seed": null}}, "kernel_regularizer": null, "use_bias": true, "bias_initializer": {"class_name": "Zeros", "config": {}}, "name": "nbhd_convs_time2_4", "bias_constraint": null, "filters": 64, "activity_regularizer": null, "strides": [1, 1], "kernel_size": [3, 3], "padding": "same"}}, {"inbound_nodes": [[["flow_convs_time2_4", 0, 0, {}]]], "class_name": "Activation", "name": "flow_convs_activation_time2_4", "config": {"trainable": true, "name": "flow_convs_activation_time2_4", "activation": "relu"}}, {"inbound_nodes": [[["multiply_12", 0, 0, {}]]], "class_name": "Conv2D", "name": "nbhd_convs_time2_5", "config": {"trainable": true, "dilation_rate": [1, 1], "activation": "linear", "kernel_constraint": null, "bias_regularizer": null, "data_format": "channels_last", "kernel_initializer": {"class_name": "VarianceScaling", "config": {"mode": "fan_avg", "scale": 1.0, "distribution": "uniform", "seed": null}}, "kernel_regularizer": null, "use_bias": true, "bias_initializer": {"class_name": "Zeros", "config": {}}, "name": "nbhd_convs_time2_5", "bias_constraint": null, "filters": 64, "activity_regularizer": null, "strides": [1, 1], "kernel_size": [3, 3], "padding": "same"}}, {"inbound_nodes": [[["flow_convs_time2_5", 0, 0, {}]]], "class_name": "Activation", "name": "flow_convs_activation_time2_5", "config": {"trainable": true, "name": "flow_convs_activation_time2_5", "activation": "relu"}}, {"inbound_nodes": [[["multiply_13", 0, 0, {}]]], "class_name": "Conv2D", "name": "nbhd_convs_time2_6", "config": {"trainable": true, "dilation_rate": [1, 1], "activation": "linear", "kernel_constraint": null, "bias_regularizer": null, "data_format": "channels_last", "kernel_initializer": {"class_name": "VarianceScaling", "config": {"mode": "fan_avg", "scale": 1.0, "distribution": "uniform", "seed": null}}, "kernel_regularizer": null, "use_bias": true, "bias_initializer": {"class_name": "Zeros", "config": {}}, "name": "nbhd_convs_time2_6", "bias_constraint": null, "filters": 64, "activity_regularizer": null, "strides": [1, 1], "kernel_size": [3, 3], "padding": "same"}}, {"inbound_nodes": [[["flow_convs_time2_6", 0, 0, {}]]], "class_name": "Activation", "name": "flow_convs_activation_time2_6", "config": {"trainable": true, "name": "flow_convs_activation_time2_6", "activation": "relu"}}, {"inbound_nodes": [[["multiply_14", 0, 0, {}]]], "class_name": "Conv2D", "name": "nbhd_convs_time2_7", "config": {"trainable": true, "dilation_rate": [1, 1], "activation": "linear", "kernel_constraint": null, "bias_regularizer": null, "data_format": "channels_last", "kernel_initializer": {"class_name": "VarianceScaling", "config": {"mode": "fan_avg", "scale": 1.0, "distribution": "uniform", "seed": null}}, "kernel_regularizer": null, "use_bias": true, "bias_initializer": {"class_name": "Zeros", "config": {}}, "name": "nbhd_convs_time2_7", "bias_constraint": null, "filters": 64, "activity_regularizer": null, "strides": [1, 1], "kernel_size": [3, 3], "padding": "same"}}, {"inbound_nodes": [[["flow_convs_time2_7", 0, 0, {}]]], "class_name": "Activation", "name": "flow_convs_activation_time2_7", "config": {"trainable": true, "name": "flow_convs_activation_time2_7", "activation": "relu"}}, {"inbound_nodes": [[["multiply_34", 0, 0, {}]]], "class_name": "Conv2D", "name": "att_nbhd_convs_time2_2_1", "config": {"trainable": true, "dilation_rate": [1, 1], "activation": "linear", "kernel_constraint": null, "bias_regularizer": null, "data_format": "channels_last", "kernel_initializer": {"class_name": "VarianceScaling", "config": {"mode": "fan_avg", "scale": 1.0, "distribution": "uniform", "seed": null}}, "kernel_regularizer": null, "use_bias": true, "bias_initializer": {"class_name": "Zeros", "config": {}}, "name": "att_nbhd_convs_time2_2_1", "bias_constraint": null, "filters": 64, "activity_regularizer": null, "strides": [1, 1], "kernel_size": [3, 3], "padding": "same"}}, {"inbound_nodes": [[["att_flow_convs_time2_2_1", 0, 0, {}]]], "class_name": "Activation", "name": "att_flow_convs_activation_time2_2_1", "config": {"trainable": true, "name": "att_flow_convs_activation_time2_2_1", "activation": "relu"}}, {"inbound_nodes": [[["multiply_35", 0, 0, {}]]], "class_name": "Conv2D", "name": "att_nbhd_convs_time2_2_2", "config": {"trainable": true, "dilation_rate": [1, 1], "activation": "linear", "kernel_constraint": null, "bias_regularizer": null, "data_format": "channels_last", "kernel_initializer": {"class_name": "VarianceScaling", "config": {"mode": "fan_avg", "scale": 1.0, "distribution": "uniform", "seed": null}}, "kernel_regularizer": null, "use_bias": true, "bias_initializer": {"class_name": "Zeros", "config": {}}, "name": "att_nbhd_convs_time2_2_2", "bias_constraint": null, "filters": 64, "activity_regularizer": null, "strides": [1, 1], "kernel_size": [3, 3], "padding": "same"}}, {"inbound_nodes": [[["att_flow_convs_time2_2_2", 0, 0, {}]]], "class_name": "Activation", "name": "att_flow_convs_activation_time2_2_2", "config": {"trainable": true, "name": "att_flow_convs_activation_time2_2_2", "activation": "relu"}}, {"inbound_nodes": [[["multiply_36", 0, 0, {}]]], "class_name": "Conv2D", "name": "att_nbhd_convs_time2_2_3", "config": {"trainable": true, "dilation_rate": [1, 1], "activation": "linear", "kernel_constraint": null, "bias_regularizer": null, "data_format": "channels_last", "kernel_initializer": {"class_name": "VarianceScaling", "config": {"mode": "fan_avg", "scale": 1.0, "distribution": "uniform", "seed": null}}, "kernel_regularizer": null, "use_bias": true, "bias_initializer": {"class_name": "Zeros", "config": {}}, "name": "att_nbhd_convs_time2_2_3", "bias_constraint": null, "filters": 64, "activity_regularizer": null, "strides": [1, 1], "kernel_size": [3, 3], "padding": "same"}}, {"inbound_nodes": [[["att_flow_convs_time2_2_3", 0, 0, {}]]], "class_name": "Activation", "name": "att_flow_convs_activation_time2_2_3", "config": {"trainable": true, "name": "att_flow_convs_activation_time2_2_3", "activation": "relu"}}, {"inbound_nodes": [[["multiply_37", 0, 0, {}]]], "class_name": "Conv2D", "name": "att_nbhd_convs_time2_3_1", "config": {"trainable": true, "dilation_rate": [1, 1], "activation": "linear", "kernel_constraint": null, "bias_regularizer": null, "data_format": "channels_last", "kernel_initializer": {"class_name": "VarianceScaling", "config": {"mode": "fan_avg", "scale": 1.0, "distribution": "uniform", "seed": null}}, "kernel_regularizer": null, "use_bias": true, "bias_initializer": {"class_name": "Zeros", "config": {}}, "name": "att_nbhd_convs_time2_3_1", "bias_constraint": null, "filters": 64, "activity_regularizer": null, "strides": [1, 1], "kernel_size": [3, 3], "padding": "same"}}, {"inbound_nodes": [[["att_flow_convs_time2_3_1", 0, 0, {}]]], "class_name": "Activation", "name": "att_flow_convs_activation_time2_3_1", "config": {"trainable": true, "name": "att_flow_convs_activation_time2_3_1", "activation": "relu"}}, {"inbound_nodes": [[["multiply_38", 0, 0, {}]]], "class_name": "Conv2D", "name": "att_nbhd_convs_time2_3_2", "config": {"trainable": true, "dilation_rate": [1, 1], "activation": "linear", "kernel_constraint": null, "bias_regularizer": null, "data_format": "channels_last", "kernel_initializer": {"class_name": "VarianceScaling", "config": {"mode": "fan_avg", "scale": 1.0, "distribution": "uniform", "seed": null}}, "kernel_regularizer": null, "use_bias": true, "bias_initializer": {"class_name": "Zeros", "config": {}}, "name": "att_nbhd_convs_time2_3_2", "bias_constraint": null, "filters": 64, "activity_regularizer": null, "strides": [1, 1], "kernel_size": [3, 3], "padding": "same"}}, {"inbound_nodes": [[["att_flow_convs_time2_3_2", 0, 0, {}]]], "class_name": "Activation", "name": "att_flow_convs_activation_time2_3_2", "config": {"trainable": true, "name": "att_flow_convs_activation_time2_3_2", "activation": "relu"}}, {"inbound_nodes": [[["multiply_39", 0, 0, {}]]], "class_name": "Conv2D", "name": "att_nbhd_convs_time2_3_3", "config": {"trainable": true, "dilation_rate": [1, 1], "activation": "linear", "kernel_constraint": null, "bias_regularizer": null, "data_format": "channels_last", "kernel_initializer": {"class_name": "VarianceScaling", "config": {"mode": "fan_avg", "scale": 1.0, "distribution": "uniform", "seed": null}}, "kernel_regularizer": null, "use_bias": true, "bias_initializer": {"class_name": "Zeros", "config": {}}, "name": "att_nbhd_convs_time2_3_3", "bias_constraint": null, "filters": 64, "activity_regularizer": null, "strides": [1, 1], "kernel_size": [3, 3], "padding": "same"}}, {"inbound_nodes": [[["att_flow_convs_time2_3_3", 0, 0, {}]]], "class_name": "Activation", "name": "att_flow_convs_activation_time2_3_3", "config": {"trainable": true, "name": "att_flow_convs_activation_time2_3_3", "activation": "relu"}}, {"inbound_nodes": [[["att_nbhd_convs_time2_1_1", 0, 0, {}]]], "class_name": "Activation", "name": "att_nbhd_convs_activation_time2_1_1", "config": {"trainable": true, "name": "att_nbhd_convs_activation_time2_1_1", "activation": "relu"}}, {"inbound_nodes": [[["att_flow_convs_activation_time2_1_1", 0, 0, {}]]], "class_name": "Activation", "name": "att_flow_gate2_1_1", "config": {"trainable": true, "name": "att_flow_gate2_1_1", "activation": "sigmoid"}}, {"inbound_nodes": [[["att_nbhd_convs_time2_1_2", 0, 0, {}]]], "class_name": "Activation", "name": "att_nbhd_convs_activation_time2_1_2", "config": {"trainable": true, "name": "att_nbhd_convs_activation_time2_1_2", "activation": "relu"}}, {"inbound_nodes": [[["att_flow_convs_activation_time2_1_2", 0, 0, {}]]], "class_name": "Activation", "name": "att_flow_gate2_1_2", "config": {"trainable": true, "name": "att_flow_gate2_1_2", "activation": "sigmoid"}}, {"inbound_nodes": [[["att_nbhd_convs_time2_1_3", 0, 0, {}]]], "class_name": "Activation", "name": "att_nbhd_convs_activation_time2_1_3", "config": {"trainable": true, "name": "att_nbhd_convs_activation_time2_1_3", "activation": "relu"}}, {"inbound_nodes": [[["att_flow_convs_activation_time2_1_3", 0, 0, {}]]], "class_name": "Activation", "name": "att_flow_gate2_1_3", "config": {"trainable": true, "name": "att_flow_gate2_1_3", "activation": "sigmoid"}}, {"inbound_nodes": [[["nbhd_convs_time2_1", 0, 0, {}]]], "class_name": "Activation", "name": "nbhd_convs_activation_time2_1", "config": {"trainable": true, "name": "nbhd_convs_activation_time2_1", "activation": "relu"}}, {"inbound_nodes": [[["flow_convs_activation_time2_1", 0, 0, {}]]], "class_name": "Activation", "name": "flow_gate2_1", "config": {"trainable": true, "name": "flow_gate2_1", "activation": "sigmoid"}}, {"inbound_nodes": [[["nbhd_convs_time2_2", 0, 0, {}]]], "class_name": "Activation", "name": "nbhd_convs_activation_time2_2", "config": {"trainable": true, "name": "nbhd_convs_activation_time2_2", "activation": "relu"}}, {"inbound_nodes": [[["flow_convs_activation_time2_2", 0, 0, {}]]], "class_name": "Activation", "name": "flow_gate2_2", "config": {"trainable": true, "name": "flow_gate2_2", "activation": "sigmoid"}}, {"inbound_nodes": [[["nbhd_convs_time2_3", 0, 0, {}]]], "class_name": "Activation", "name": "nbhd_convs_activation_time2_3", "config": {"trainable": true, "name": "nbhd_convs_activation_time2_3", "activation": "relu"}}, {"inbound_nodes": [[["flow_convs_activation_time2_3", 0, 0, {}]]], "class_name": "Activation", "name": "flow_gate2_3", "config": {"trainable": true, "name": "flow_gate2_3", "activation": "sigmoid"}}, {"inbound_nodes": [[["nbhd_convs_time2_4", 0, 0, {}]]], "class_name": "Activation", "name": "nbhd_convs_activation_time2_4", "config": {"trainable": true, "name": "nbhd_convs_activation_time2_4", "activation": "relu"}}, {"inbound_nodes": [[["flow_convs_activation_time2_4", 0, 0, {}]]], "class_name": "Activation", "name": "flow_gate2_4", "config": {"trainable": true, "name": "flow_gate2_4", "activation": "sigmoid"}}, {"inbound_nodes": [[["nbhd_convs_time2_5", 0, 0, {}]]], "class_name": "Activation", "name": "nbhd_convs_activation_time2_5", "config": {"trainable": true, "name": "nbhd_convs_activation_time2_5", "activation": "relu"}}, {"inbound_nodes": [[["flow_convs_activation_time2_5", 0, 0, {}]]], "class_name": "Activation", "name": "flow_gate2_5", "config": {"trainable": true, "name": "flow_gate2_5", "activation": "sigmoid"}}, {"inbound_nodes": [[["nbhd_convs_time2_6", 0, 0, {}]]], "class_name": "Activation", "name": "nbhd_convs_activation_time2_6", "config": {"trainable": true, "name": "nbhd_convs_activation_time2_6", "activation": "relu"}}, {"inbound_nodes": [[["flow_convs_activation_time2_6", 0, 0, {}]]], "class_name": "Activation", "name": "flow_gate2_6", "config": {"trainable": true, "name": "flow_gate2_6", "activation": "sigmoid"}}, {"inbound_nodes": [[["nbhd_convs_time2_7", 0, 0, {}]]], "class_name": "Activation", "name": "nbhd_convs_activation_time2_7", "config": {"trainable": true, "name": "nbhd_convs_activation_time2_7", "activation": "relu"}}, {"inbound_nodes": [[["flow_convs_activation_time2_7", 0, 0, {}]]], "class_name": "Activation", "name": "flow_gate2_7", "config": {"trainable": true, "name": "flow_gate2_7", "activation": "sigmoid"}}, {"inbound_nodes": [[["att_nbhd_convs_time2_2_1", 0, 0, {}]]], "class_name": "Activation", "name": "att_nbhd_convs_activation_time2_2_1", "config": {"trainable": true, "name": "att_nbhd_convs_activation_time2_2_1", "activation": "relu"}}, {"inbound_nodes": [[["att_flow_convs_activation_time2_2_1", 0, 0, {}]]], "class_name": "Activation", "name": "att_flow_gate2_2_1", "config": {"trainable": true, "name": "att_flow_gate2_2_1", "activation": "sigmoid"}}, {"inbound_nodes": [[["att_nbhd_convs_time2_2_2", 0, 0, {}]]], "class_name": "Activation", "name": "att_nbhd_convs_activation_time2_2_2", "config": {"trainable": true, "name": "att_nbhd_convs_activation_time2_2_2", "activation": "relu"}}, {"inbound_nodes": [[["att_flow_convs_activation_time2_2_2", 0, 0, {}]]], "class_name": "Activation", "name": "att_flow_gate2_2_2", "config": {"trainable": true, "name": "att_flow_gate2_2_2", "activation": "sigmoid"}}, {"inbound_nodes": [[["att_nbhd_convs_time2_2_3", 0, 0, {}]]], "class_name": "Activation", "name": "att_nbhd_convs_activation_time2_2_3", "config": {"trainable": true, "name": "att_nbhd_convs_activation_time2_2_3", "activation": "relu"}}, {"inbound_nodes": [[["att_flow_convs_activation_time2_2_3", 0, 0, {}]]], "class_name": "Activation", "name": "att_flow_gate2_2_3", "config": {"trainable": true, "name": "att_flow_gate2_2_3", "activation": "sigmoid"}}, {"inbound_nodes": [[["att_nbhd_convs_time2_3_1", 0, 0, {}]]], "class_name": "Activation", "name": "att_nbhd_convs_activation_time2_3_1", "config": {"trainable": true, "name": "att_nbhd_convs_activation_time2_3_1", "activation": "relu"}}, {"inbound_nodes": [[["att_flow_convs_activation_time2_3_1", 0, 0, {}]]], "class_name": "Activation", "name": "att_flow_gate2_3_1", "config": {"trainable": true, "name": "att_flow_gate2_3_1", "activation": "sigmoid"}}, {"inbound_nodes": [[["att_nbhd_convs_time2_3_2", 0, 0, {}]]], "class_name": "Activation", "name": "att_nbhd_convs_activation_time2_3_2", "config": {"trainable": true, "name": "att_nbhd_convs_activation_time2_3_2", "activation": "relu"}}, {"inbound_nodes": [[["att_flow_convs_activation_time2_3_2", 0, 0, {}]]], "class_name": "Activation", "name": "att_flow_gate2_3_2", "config": {"trainable": true, "name": "att_flow_gate2_3_2", "activation": "sigmoid"}}, {"inbound_nodes": [[["att_nbhd_convs_time2_3_3", 0, 0, {}]]], "class_name": "Activation", "name": "att_nbhd_convs_activation_time2_3_3", "config": {"trainable": true, "name": "att_nbhd_convs_activation_time2_3_3", "activation": "relu"}}, {"inbound_nodes": [[["att_flow_convs_activation_time2_3_3", 0, 0, {}]]], "class_name": "Activation", "name": "att_flow_gate2_3_3", "config": {"trainable": true, "name": "att_flow_gate2_3_3", "activation": "sigmoid"}}, {"inbound_nodes": [[["att_nbhd_convs_activation_time2_1_1", 0, 0, {}], ["att_flow_gate2_1_1", 0, 0, {}]]], "class_name": "Multiply", "name": "multiply_40", "config": {"trainable": true, "name": "multiply_40"}}, {"inbound_nodes": [[["att_nbhd_convs_activation_time2_1_2", 0, 0, {}], ["att_flow_gate2_1_2", 0, 0, {}]]], "class_name": "Multiply", "name": "multiply_41", "config": {"trainable": true, "name": "multiply_41"}}, {"inbound_nodes": [[["att_nbhd_convs_activation_time2_1_3", 0, 0, {}], ["att_flow_gate2_1_3", 0, 0, {}]]], "class_name": "Multiply", "name": "multiply_42", "config": {"trainable": true, "name": "multiply_42"}}, {"inbound_nodes": [[["nbhd_convs_activation_time2_1", 0, 0, {}], ["flow_gate2_1", 0, 0, {}]]], "class_name": "Multiply", "name": "multiply_15", "config": {"trainable": true, "name": "multiply_15"}}, {"inbound_nodes": [[["nbhd_convs_activation_time2_2", 0, 0, {}], ["flow_gate2_2", 0, 0, {}]]], "class_name": "Multiply", "name": "multiply_16", "config": {"trainable": true, "name": "multiply_16"}}, {"inbound_nodes": [[["nbhd_convs_activation_time2_3", 0, 0, {}], ["flow_gate2_3", 0, 0, {}]]], "class_name": "Multiply", "name": "multiply_17", "config": {"trainable": true, "name": "multiply_17"}}, {"inbound_nodes": [[["nbhd_convs_activation_time2_4", 0, 0, {}], ["flow_gate2_4", 0, 0, {}]]], "class_name": "Multiply", "name": "multiply_18", "config": {"trainable": true, "name": "multiply_18"}}, {"inbound_nodes": [[["nbhd_convs_activation_time2_5", 0, 0, {}], ["flow_gate2_5", 0, 0, {}]]], "class_name": "Multiply", "name": "multiply_19", "config": {"trainable": true, "name": "multiply_19"}}, {"inbound_nodes": [[["nbhd_convs_activation_time2_6", 0, 0, {}], ["flow_gate2_6", 0, 0, {}]]], "class_name": "Multiply", "name": "multiply_20", "config": {"trainable": true, "name": "multiply_20"}}, {"inbound_nodes": [[["nbhd_convs_activation_time2_7", 0, 0, {}], ["flow_gate2_7", 0, 0, {}]]], "class_name": "Multiply", "name": "multiply_21", "config": {"trainable": true, "name": "multiply_21"}}, {"inbound_nodes": [[["att_nbhd_convs_activation_time2_2_1", 0, 0, {}], ["att_flow_gate2_2_1", 0, 0, {}]]], "class_name": "Multiply", "name": "multiply_43", "config": {"trainable": true, "name": "multiply_43"}}, {"inbound_nodes": [[["att_nbhd_convs_activation_time2_2_2", 0, 0, {}], ["att_flow_gate2_2_2", 0, 0, {}]]], "class_name": "Multiply", "name": "multiply_44", "config": {"trainable": true, "name": "multiply_44"}}, {"inbound_nodes": [[["att_nbhd_convs_activation_time2_2_3", 0, 0, {}], ["att_flow_gate2_2_3", 0, 0, {}]]], "class_name": "Multiply", "name": "multiply_45", "config": {"trainable": true, "name": "multiply_45"}}, {"inbound_nodes": [[["att_nbhd_convs_activation_time2_3_1", 0, 0, {}], ["att_flow_gate2_3_1", 0, 0, {}]]], "class_name": "Multiply", "name": "multiply_46", "config": {"trainable": true, "name": "multiply_46"}}, {"inbound_nodes": [[["att_nbhd_convs_activation_time2_3_2", 0, 0, {}], ["att_flow_gate2_3_2", 0, 0, {}]]], "class_name": "Multiply", "name": "multiply_47", "config": {"trainable": true, "name": "multiply_47"}}, {"inbound_nodes": [[["att_nbhd_convs_activation_time2_3_3", 0, 0, {}], ["att_flow_gate2_3_3", 0, 0, {}]]], "class_name": "Multiply", "name": "multiply_48", "config": {"trainable": true, "name": "multiply_48"}}, {"inbound_nodes": [[["multiply_40", 0, 0, {}]]], "class_name": "Flatten", "name": "att_nbhd_flatten_time_1_1", "config": {"trainable": true, "name": "att_nbhd_flatten_time_1_1"}}, {"inbound_nodes": [[["multiply_41", 0, 0, {}]]], "class_name": "Flatten", "name": "att_nbhd_flatten_time_1_2", "config": {"trainable": true, "name": "att_nbhd_flatten_time_1_2"}}, {"inbound_nodes": [[["multiply_42", 0, 0, {}]]], "class_name": "Flatten", "name": "att_nbhd_flatten_time_1_3", "config": {"trainable": true, "name": "att_nbhd_flatten_time_1_3"}}, {"inbound_nodes": [[["multiply_15", 0, 0, {}]]], "class_name": "Flatten", "name": "nbhd_flatten_time_1", "config": {"trainable": true, "name": "nbhd_flatten_time_1"}}, {"inbound_nodes": [[["multiply_16", 0, 0, {}]]], "class_name": "Flatten", "name": "nbhd_flatten_time_2", "config": {"trainable": true, "name": "nbhd_flatten_time_2"}}, {"inbound_nodes": [[["multiply_17", 0, 0, {}]]], "class_name": "Flatten", "name": "nbhd_flatten_time_3", "config": {"trainable": true, "name": "nbhd_flatten_time_3"}}, {"inbound_nodes": [[["multiply_18", 0, 0, {}]]], "class_name": "Flatten", "name": "nbhd_flatten_time_4", "config": {"trainable": true, "name": "nbhd_flatten_time_4"}}, {"inbound_nodes": [[["multiply_19", 0, 0, {}]]], "class_name": "Flatten", "name": "nbhd_flatten_time_5", "config": {"trainable": true, "name": "nbhd_flatten_time_5"}}, {"inbound_nodes": [[["multiply_20", 0, 0, {}]]], "class_name": "Flatten", "name": "nbhd_flatten_time_6", "config": {"trainable": true, "name": "nbhd_flatten_time_6"}}, {"inbound_nodes": [[["multiply_21", 0, 0, {}]]], "class_name": "Flatten", "name": "nbhd_flatten_time_7", "config": {"trainable": true, "name": "nbhd_flatten_time_7"}}, {"inbound_nodes": [[["multiply_43", 0, 0, {}]]], "class_name": "Flatten", "name": "att_nbhd_flatten_time_2_1", "config": {"trainable": true, "name": "att_nbhd_flatten_time_2_1"}}, {"inbound_nodes": [[["multiply_44", 0, 0, {}]]], "class_name": "Flatten", "name": "att_nbhd_flatten_time_2_2", "config": {"trainable": true, "name": "att_nbhd_flatten_time_2_2"}}, {"inbound_nodes": [[["multiply_45", 0, 0, {}]]], "class_name": "Flatten", "name": "att_nbhd_flatten_time_2_3", "config": {"trainable": true, "name": "att_nbhd_flatten_time_2_3"}}, {"inbound_nodes": [[["multiply_46", 0, 0, {}]]], "class_name": "Flatten", "name": "att_nbhd_flatten_time_3_1", "config": {"trainable": true, "name": "att_nbhd_flatten_time_3_1"}}, {"inbound_nodes": [[["multiply_47", 0, 0, {}]]], "class_name": "Flatten", "name": "att_nbhd_flatten_time_3_2", "config": {"trainable": true, "name": "att_nbhd_flatten_time_3_2"}}, {"inbound_nodes": [[["multiply_48", 0, 0, {}]]], "class_name": "Flatten", "name": "att_nbhd_flatten_time_3_3", "config": {"trainable": true, "name": "att_nbhd_flatten_time_3_3"}}, {"inbound_nodes": [[["att_nbhd_flatten_time_1_1", 0, 0, {}]]], "class_name": "Dense", "name": "att_nbhd_dense_time_1_1", "config": {"trainable": true, "kernel_initializer": {"class_name": "VarianceScaling", "config": {"mode": "fan_avg", "scale": 1.0, "distribution": "uniform", "seed": null}}, "kernel_constraint": null, "bias_regularizer": null, "units": 128, "kernel_regularizer": null, "use_bias": true, "bias_initializer": {"class_name": "Zeros", "config": {}}, "name": "att_nbhd_dense_time_1_1", "bias_constraint": null, "activity_regularizer": null, "activation": "linear"}}, {"inbound_nodes": [[["att_nbhd_flatten_time_1_2", 0, 0, {}]]], "class_name": "Dense", "name": "att_nbhd_dense_time_1_2", "config": {"trainable": true, "kernel_initializer": {"class_name": "VarianceScaling", "config": {"mode": "fan_avg", "scale": 1.0, "distribution": "uniform", "seed": null}}, "kernel_constraint": null, "bias_regularizer": null, "units": 128, "kernel_regularizer": null, "use_bias": true, "bias_initializer": {"class_name": "Zeros", "config": {}}, "name": "att_nbhd_dense_time_1_2", "bias_constraint": null, "activity_regularizer": null, "activation": "linear"}}, {"inbound_nodes": [[["att_nbhd_flatten_time_1_3", 0, 0, {}]]], "class_name": "Dense", "name": "att_nbhd_dense_time_1_3", "config": {"trainable": true, "kernel_initializer": {"class_name": "VarianceScaling", "config": {"mode": "fan_avg", "scale": 1.0, "distribution": "uniform", "seed": null}}, "kernel_constraint": null, "bias_regularizer": null, "units": 128, "kernel_regularizer": null, "use_bias": true, "bias_initializer": {"class_name": "Zeros", "config": {}}, "name": "att_nbhd_dense_time_1_3", "bias_constraint": null, "activity_regularizer": null, "activation": "linear"}}, {"inbound_nodes": [[["nbhd_flatten_time_1", 0, 0, {}]]], "class_name": "Dense", "name": "nbhd_dense_time_1", "config": {"trainable": true, "kernel_initializer": {"class_name": "VarianceScaling", "config": {"mode": "fan_avg", "scale": 1.0, "distribution": "uniform", "seed": null}}, "kernel_constraint": null, "bias_regularizer": null, "units": 128, "kernel_regularizer": null, "use_bias": true, "bias_initializer": {"class_name": "Zeros", "config": {}}, "name": "nbhd_dense_time_1", "bias_constraint": null, "activity_regularizer": null, "activation": "linear"}}, {"inbound_nodes": [[["nbhd_flatten_time_2", 0, 0, {}]]], "class_name": "Dense", "name": "nbhd_dense_time_2", "config": {"trainable": true, "kernel_initializer": {"class_name": "VarianceScaling", "config": {"mode": "fan_avg", "scale": 1.0, "distribution": "uniform", "seed": null}}, "kernel_constraint": null, "bias_regularizer": null, "units": 128, "kernel_regularizer": null, "use_bias": true, "bias_initializer": {"class_name": "Zeros", "config": {}}, "name": "nbhd_dense_time_2", "bias_constraint": null, "activity_regularizer": null, "activation": "linear"}}, {"inbound_nodes": [[["nbhd_flatten_time_3", 0, 0, {}]]], "class_name": "Dense", "name": "nbhd_dense_time_3", "config": {"trainable": true, "kernel_initializer": {"class_name": "VarianceScaling", "config": {"mode": "fan_avg", "scale": 1.0, "distribution": "uniform", "seed": null}}, "kernel_constraint": null, "bias_regularizer": null, "units": 128, "kernel_regularizer": null, "use_bias": true, "bias_initializer": {"class_name": "Zeros", "config": {}}, "name": "nbhd_dense_time_3", "bias_constraint": null, "activity_regularizer": null, "activation": "linear"}}, {"inbound_nodes": [[["nbhd_flatten_time_4", 0, 0, {}]]], "class_name": "Dense", "name": "nbhd_dense_time_4", "config": {"trainable": true, "kernel_initializer": {"class_name": "VarianceScaling", "config": {"mode": "fan_avg", "scale": 1.0, "distribution": "uniform", "seed": null}}, "kernel_constraint": null, "bias_regularizer": null, "units": 128, "kernel_regularizer": null, "use_bias": true, "bias_initializer": {"class_name": "Zeros", "config": {}}, "name": "nbhd_dense_time_4", "bias_constraint": null, "activity_regularizer": null, "activation": "linear"}}, {"inbound_nodes": [[["nbhd_flatten_time_5", 0, 0, {}]]], "class_name": "Dense", "name": "nbhd_dense_time_5", "config": {"trainable": true, "kernel_initializer": {"class_name": "VarianceScaling", "config": {"mode": "fan_avg", "scale": 1.0, "distribution": "uniform", "seed": null}}, "kernel_constraint": null, "bias_regularizer": null, "units": 128, "kernel_regularizer": null, "use_bias": true, "bias_initializer": {"class_name": "Zeros", "config": {}}, "name": "nbhd_dense_time_5", "bias_constraint": null, "activity_regularizer": null, "activation": "linear"}}, {"inbound_nodes": [[["nbhd_flatten_time_6", 0, 0, {}]]], "class_name": "Dense", "name": "nbhd_dense_time_6", "config": {"trainable": true, "kernel_initializer": {"class_name": "VarianceScaling", "config": {"mode": "fan_avg", "scale": 1.0, "distribution": "uniform", "seed": null}}, "kernel_constraint": null, "bias_regularizer": null, "units": 128, "kernel_regularizer": null, "use_bias": true, "bias_initializer": {"class_name": "Zeros", "config": {}}, "name": "nbhd_dense_time_6", "bias_constraint": null, "activity_regularizer": null, "activation": "linear"}}, {"inbound_nodes": [[["nbhd_flatten_time_7", 0, 0, {}]]], "class_name": "Dense", "name": "nbhd_dense_time_7", "config": {"trainable": true, "kernel_initializer": {"class_name": "VarianceScaling", "config": {"mode": "fan_avg", "scale": 1.0, "distribution": "uniform", "seed": null}}, "kernel_constraint": null, "bias_regularizer": null, "units": 128, "kernel_regularizer": null, "use_bias": true, "bias_initializer": {"class_name": "Zeros", "config": {}}, "name": "nbhd_dense_time_7", "bias_constraint": null, "activity_regularizer": null, "activation": "linear"}}, {"inbound_nodes": [[["att_nbhd_flatten_time_2_1", 0, 0, {}]]], "class_name": "Dense", "name": "att_nbhd_dense_time_2_1", "config": {"trainable": true, "kernel_initializer": {"class_name": "VarianceScaling", "config": {"mode": "fan_avg", "scale": 1.0, "distribution": "uniform", "seed": null}}, "kernel_constraint": null, "bias_regularizer": null, "units": 128, "kernel_regularizer": null, "use_bias": true, "bias_initializer": {"class_name": "Zeros", "config": {}}, "name": "att_nbhd_dense_time_2_1", "bias_constraint": null, "activity_regularizer": null, "activation": "linear"}}, {"inbound_nodes": [[["att_nbhd_flatten_time_2_2", 0, 0, {}]]], "class_name": "Dense", "name": "att_nbhd_dense_time_2_2", "config": {"trainable": true, "kernel_initializer": {"class_name": "VarianceScaling", "config": {"mode": "fan_avg", "scale": 1.0, "distribution": "uniform", "seed": null}}, "kernel_constraint": null, "bias_regularizer": null, "units": 128, "kernel_regularizer": null, "use_bias": true, "bias_initializer": {"class_name": "Zeros", "config": {}}, "name": "att_nbhd_dense_time_2_2", "bias_constraint": null, "activity_regularizer": null, "activation": "linear"}}, {"inbound_nodes": [[["att_nbhd_flatten_time_2_3", 0, 0, {}]]], "class_name": "Dense", "name": "att_nbhd_dense_time_2_3", "config": {"trainable": true, "kernel_initializer": {"class_name": "VarianceScaling", "config": {"mode": "fan_avg", "scale": 1.0, "distribution": "uniform", "seed": null}}, "kernel_constraint": null, "bias_regularizer": null, "units": 128, "kernel_regularizer": null, "use_bias": true, "bias_initializer": {"class_name": "Zeros", "config": {}}, "name": "att_nbhd_dense_time_2_3", "bias_constraint": null, "activity_regularizer": null, "activation": "linear"}}, {"inbound_nodes": [[["att_nbhd_flatten_time_3_1", 0, 0, {}]]], "class_name": "Dense", "name": "att_nbhd_dense_time_3_1", "config": {"trainable": true, "kernel_initializer": {"class_name": "VarianceScaling", "config": {"mode": "fan_avg", "scale": 1.0, "distribution": "uniform", "seed": null}}, "kernel_constraint": null, "bias_regularizer": null, "units": 128, "kernel_regularizer": null, "use_bias": true, "bias_initializer": {"class_name": "Zeros", "config": {}}, "name": "att_nbhd_dense_time_3_1", "bias_constraint": null, "activity_regularizer": null, "activation": "linear"}}, {"inbound_nodes": [[["att_nbhd_flatten_time_3_2", 0, 0, {}]]], "class_name": "Dense", "name": "att_nbhd_dense_time_3_2", "config": {"trainable": true, "kernel_initializer": {"class_name": "VarianceScaling", "config": {"mode": "fan_avg", "scale": 1.0, "distribution": "uniform", "seed": null}}, "kernel_constraint": null, "bias_regularizer": null, "units": 128, "kernel_regularizer": null, "use_bias": true, "bias_initializer": {"class_name": "Zeros", "config": {}}, "name": "att_nbhd_dense_time_3_2", "bias_constraint": null, "activity_regularizer": null, "activation": "linear"}}, {"inbound_nodes": [[["att_nbhd_flatten_time_3_3", 0, 0, {}]]], "class_name": "Dense", "name": "att_nbhd_dense_time_3_3", "config": {"trainable": true, "kernel_initializer": {"class_name": "VarianceScaling", "config": {"mode": "fan_avg", "scale": 1.0, "distribution": "uniform", "seed": null}}, "kernel_constraint": null, "bias_regularizer": null, "units": 128, "kernel_regularizer": null, "use_bias": true, "bias_initializer": {"class_name": "Zeros", "config": {}}, "name": "att_nbhd_dense_time_3_3", "bias_constraint": null, "activity_regularizer": null, "activation": "linear"}}, {"inbound_nodes": [[["att_nbhd_dense_time_1_1", 0, 0, {}]]], "class_name": "Activation", "name": "att_nbhd_dense_activation_time_1_1", "config": {"trainable": true, "name": "att_nbhd_dense_activation_time_1_1", "activation": "relu"}}, {"inbound_nodes": [[["att_nbhd_dense_time_1_2", 0, 0, {}]]], "class_name": "Activation", "name": "att_nbhd_dense_activation_time_1_2", "config": {"trainable": true, "name": "att_nbhd_dense_activation_time_1_2", "activation": "relu"}}, {"inbound_nodes": [[["att_nbhd_dense_time_1_3", 0, 0, {}]]], "class_name": "Activation", "name": "att_nbhd_dense_activation_time_1_3", "config": {"trainable": true, "name": "att_nbhd_dense_activation_time_1_3", "activation": "relu"}}, {"inbound_nodes": [[["nbhd_dense_time_1", 0, 0, {}]]], "class_name": "Activation", "name": "nbhd_dense_activation_time_1", "config": {"trainable": true, "name": "nbhd_dense_activation_time_1", "activation": "relu"}}, {"inbound_nodes": [[["nbhd_dense_time_2", 0, 0, {}]]], "class_name": "Activation", "name": "nbhd_dense_activation_time_2", "config": {"trainable": true, "name": "nbhd_dense_activation_time_2", "activation": "relu"}}, {"inbound_nodes": [[["nbhd_dense_time_3", 0, 0, {}]]], "class_name": "Activation", "name": "nbhd_dense_activation_time_3", "config": {"trainable": true, "name": "nbhd_dense_activation_time_3", "activation": "relu"}}, {"inbound_nodes": [[["nbhd_dense_time_4", 0, 0, {}]]], "class_name": "Activation", "name": "nbhd_dense_activation_time_4", "config": {"trainable": true, "name": "nbhd_dense_activation_time_4", "activation": "relu"}}, {"inbound_nodes": [[["nbhd_dense_time_5", 0, 0, {}]]], "class_name": "Activation", "name": "nbhd_dense_activation_time_5", "config": {"trainable": true, "name": "nbhd_dense_activation_time_5", "activation": "relu"}}, {"inbound_nodes": [[["nbhd_dense_time_6", 0, 0, {}]]], "class_name": "Activation", "name": "nbhd_dense_activation_time_6", "config": {"trainable": true, "name": "nbhd_dense_activation_time_6", "activation": "relu"}}, {"inbound_nodes": [[["nbhd_dense_time_7", 0, 0, {}]]], "class_name": "Activation", "name": "nbhd_dense_activation_time_7", "config": {"trainable": true, "name": "nbhd_dense_activation_time_7", "activation": "relu"}}, {"inbound_nodes": [[["att_nbhd_dense_time_2_1", 0, 0, {}]]], "class_name": "Activation", "name": "att_nbhd_dense_activation_time_2_1", "config": {"trainable": true, "name": "att_nbhd_dense_activation_time_2_1", "activation": "relu"}}, {"inbound_nodes": [[["att_nbhd_dense_time_2_2", 0, 0, {}]]], "class_name": "Activation", "name": "att_nbhd_dense_activation_time_2_2", "config": {"trainable": true, "name": "att_nbhd_dense_activation_time_2_2", "activation": "relu"}}, {"inbound_nodes": [[["att_nbhd_dense_time_2_3", 0, 0, {}]]], "class_name": "Activation", "name": "att_nbhd_dense_activation_time_2_3", "config": {"trainable": true, "name": "att_nbhd_dense_activation_time_2_3", "activation": "relu"}}, {"inbound_nodes": [[["att_nbhd_dense_time_3_1", 0, 0, {}]]], "class_name": "Activation", "name": "att_nbhd_dense_activation_time_3_1", "config": {"trainable": true, "name": "att_nbhd_dense_activation_time_3_1", "activation": "relu"}}, {"inbound_nodes": [[["att_nbhd_dense_time_3_2", 0, 0, {}]]], "class_name": "Activation", "name": "att_nbhd_dense_activation_time_3_2", "config": {"trainable": true, "name": "att_nbhd_dense_activation_time_3_2", "activation": "relu"}}, {"inbound_nodes": [[["att_nbhd_dense_time_3_3", 0, 0, {}]]], "class_name": "Activation", "name": "att_nbhd_dense_activation_time_3_3", "config": {"trainable": true, "name": "att_nbhd_dense_activation_time_3_3", "activation": "relu"}}, {"inbound_nodes": [[["att_nbhd_dense_activation_time_1_1", 0, 0, {}], ["att_nbhd_dense_activation_time_1_2", 0, 0, {}], ["att_nbhd_dense_activation_time_1_3", 0, 0, {}]]], "class_name": "Concatenate", "name": "concatenate_3", "config": {"trainable": true, "name": "concatenate_3", "axis": -1}}, {"inbound_nodes": [[["nbhd_dense_activation_time_1", 0, 0, {}], ["nbhd_dense_activation_time_2", 0, 0, {}], ["nbhd_dense_activation_time_3", 0, 0, {}], ["nbhd_dense_activation_time_4", 0, 0, {}], ["nbhd_dense_activation_time_5", 0, 0, {}], ["nbhd_dense_activation_time_6", 0, 0, {}], ["nbhd_dense_activation_time_7", 0, 0, {}]]], "class_name": "Concatenate", "name": "concatenate_1", "config": {"trainable": true, "name": "concatenate_1", "axis": -1}}, {"inbound_nodes": [[["att_nbhd_dense_activation_time_2_1", 0, 0, {}], ["att_nbhd_dense_activation_time_2_2", 0, 0, {}], ["att_nbhd_dense_activation_time_2_3", 0, 0, {}]]], "class_name": "Concatenate", "name": "concatenate_4", "config": {"trainable": true, "name": "concatenate_4", "axis": -1}}, {"inbound_nodes": [[["att_nbhd_dense_activation_time_3_1", 0, 0, {}], ["att_nbhd_dense_activation_time_3_2", 0, 0, {}], ["att_nbhd_dense_activation_time_3_3", 0, 0, {}]]], "class_name": "Concatenate", "name": "concatenate_5", "config": {"trainable": true, "name": "concatenate_5", "axis": -1}}, {"inbound_nodes": [], "class_name": "InputLayer", "name": "att_lstm_input_1", "config": {"batch_input_shape": [null, 3, 160], "name": "att_lstm_input_1", "sparse": false, "dtype": "float32"}}, {"inbound_nodes": [[["concatenate_3", 0, 0, {}]]], "class_name": "Reshape", "name": "reshape_2", "config": {"trainable": true, "target_shape": [3, 128], "name": "reshape_2"}}, {"inbound_nodes": [], "class_name": "InputLayer", "name": "lstm_input", "config": {"batch_input_shape": [null, 7, 160], "name": "lstm_input", "sparse": false, "dtype": "float32"}}, {"inbound_nodes": [[["concatenate_1", 0, 0, {}]]], "class_name": "Reshape", "name": "reshape_1", "config": {"trainable": true, "target_shape": [7, 128], "name": "reshape_1"}}, {"inbound_nodes": [], "class_name": "InputLayer", "name": "att_lstm_input_2", "config": {"batch_input_shape": [null, 3, 160], "name": "att_lstm_input_2", "sparse": false, "dtype": "float32"}}, {"inbound_nodes": [[["concatenate_4", 0, 0, {}]]], "class_name": "Reshape", "name": "reshape_3", "config": {"trainable": true, "target_shape": [3, 128], "name": "reshape_3"}}, {"inbound_nodes": [], "class_name": "InputLayer", "name": "att_lstm_input_3", "config": {"batch_input_shape": [null, 3, 160], "name": "att_lstm_input_3", "sparse": false, "dtype": "float32"}}, {"inbound_nodes": [[["concatenate_5", 0, 0, {}]]], "class_name": "Reshape", "name": "reshape_4", "config": {"trainable": true, "target_shape": [3, 128], "name": "reshape_4"}}, {"inbound_nodes": [[["att_lstm_input_1", 0, 0, {}], ["reshape_2", 0, 0, {}]]], "class_name": "Concatenate", "name": "concatenate_6", "config": {"trainable": true, "name": "concatenate_6", "axis": -1}}, {"inbound_nodes": [[["lstm_input", 0, 0, {}], ["reshape_1", 0, 0, {}]]], "class_name": "Concatenate", "name": "concatenate_2", "config": {"trainable": true, "name": "concatenate_2", "axis": -1}}, {"inbound_nodes": [[["att_lstm_input_2", 0, 0, {}], ["reshape_3", 0, 0, {}]]], "class_name": "Concatenate", "name": "concatenate_7", "config": {"trainable": true, "name": "concatenate_7", "axis": -1}}, {"inbound_nodes": [[["att_lstm_input_3", 0, 0, {}], ["reshape_4", 0, 0, {}]]], "class_name": "Concatenate", "name": "concatenate_8", "config": {"trainable": true, "name": "concatenate_8", "axis": -1}}, {"inbound_nodes": [[["concatenate_6", 0, 0, {}]]], "class_name": "LSTM", "name": "att_lstm_1", "config": {"recurrent_constraint": null, "trainable": true, "kernel_initializer": {"class_name": "VarianceScaling", "config": {"mode": "fan_avg", "scale": 1.0, "distribution": "uniform", "seed": null}}, "stateful": false, "recurrent_initializer": {"class_name": "Orthogonal", "config": {"gain": 1.0, "seed": null}}, "unroll": false, "use_bias": true, "unit_forget_bias": true, "name": "att_lstm_1", "bias_constraint": null, "dropout": 0.1, "go_backwards": false, "recurrent_activation": "hard_sigmoid", "activation": "tanh", "implementation": 0, "kernel_constraint": null, "recurrent_regularizer": null, "activity_regularizer": null, "units": 128, "kernel_regularizer": null, "bias_initializer": {"class_name": "Zeros", "config": {}}, "return_sequences": true, "bias_regularizer": null, "recurrent_dropout": 0.1, "return_state": false}}, {"inbound_nodes": [[["concatenate_2", 0, 0, {}]]], "class_name": "LSTM", "name": "lstm_1", "config": {"recurrent_constraint": null, "trainable": true, "kernel_initializer": {"class_name": "VarianceScaling", "config": {"mode": "fan_avg", "scale": 1.0, "distribution": "uniform", "seed": null}}, "stateful": false, "recurrent_initializer": {"class_name": "Orthogonal", "config": {"gain": 1.0, "seed": null}}, "unroll": false, "use_bias": true, "unit_forget_bias": true, "name": "lstm_1", "bias_constraint": null, "dropout": 0.1, "go_backwards": false, "recurrent_activation": "hard_sigmoid", "activation": "tanh", "implementation": 0, "kernel_constraint": null, "recurrent_regularizer": null, "activity_regularizer": null, "units": 128, "kernel_regularizer": null, "bias_initializer": {"class_name": "Zeros", "config": {}}, "return_sequences": false, "bias_regularizer": null, "recurrent_dropout": 0.1, "return_state": false}}, {"inbound_nodes": [[["concatenate_7", 0, 0, {}]]], "class_name": "LSTM", "name": "att_lstm_2", "config": {"recurrent_constraint": null, "trainable": true, "kernel_initializer": {"class_name": "VarianceScaling", "config": {"mode": "fan_avg", "scale": 1.0, "distribution": "uniform", "seed": null}}, "stateful": false, "recurrent_initializer": {"class_name": "Orthogonal", "config": {"gain": 1.0, "seed": null}}, "unroll": false, "use_bias": true, "unit_forget_bias": true, "name": "att_lstm_2", "bias_constraint": null, "dropout": 0.1, "go_backwards": false, "recurrent_activation": "hard_sigmoid", "activation": "tanh", "implementation": 0, "kernel_constraint": null, "recurrent_regularizer": null, "activity_regularizer": null, "units": 128, "kernel_regularizer": null, "bias_initializer": {"class_name": "Zeros", "config": {}}, "return_sequences": true, "bias_regularizer": null, "recurrent_dropout": 0.1, "return_state": false}}, {"inbound_nodes": [[["concatenate_8", 0, 0, {}]]], "class_name": "LSTM", "name": "att_lstm_3", "config": {"recurrent_constraint": null, "trainable": true, "kernel_initializer": {"class_name": "VarianceScaling", "config": {"mode": "fan_avg", "scale": 1.0, "distribution": "uniform", "seed": null}}, "stateful": false, "recurrent_initializer": {"class_name": "Orthogonal", "config": {"gain": 1.0, "seed": null}}, "unroll": false, "use_bias": true, "unit_forget_bias": true, "name": "att_lstm_3", "bias_constraint": null, "dropout": 0.1, "go_backwards": false, "recurrent_activation": "hard_sigmoid", "activation": "tanh", "implementation": 0, "kernel_constraint": null, "recurrent_regularizer": null, "activity_regularizer": null, "units": 128, "kernel_regularizer": null, "bias_initializer": {"class_name": "Zeros", "config": {}}, "return_sequences": true, "bias_regularizer": null, "recurrent_dropout": 0.1, "return_state": false}}, {"inbound_nodes": [[["att_lstm_1", 0, 0, {}], ["lstm_1", 0, 0, {}]]], "class_name": "Attention", "name": "attention_1", "config": {"trainable": true, "name": "attention_1"}}, {"inbound_nodes": [[["att_lstm_2", 0, 0, {}], ["lstm_1", 0, 0, {}]]], "class_name": "Attention", "name": "attention_2", "config": {"trainable": true, "name": "attention_2"}}, {"inbound_nodes": [[["att_lstm_3", 0, 0, {}], ["lstm_1", 0, 0, {}]]], "class_name": "Attention", "name": "attention_3", "config": {"trainable": true, "name": "attention_3"}}, {"inbound_nodes": [[["attention_1", 0, 0, {}], ["attention_2", 0, 0, {}], ["attention_3", 0, 0, {}]]], "class_name": "Concatenate", "name": "concatenate_9", "config": {"trainable": true, "name": "concatenate_9", "axis": -1}}, {"inbound_nodes": [[["concatenate_9", 0, 0, {}]]], "class_name": "Reshape", "name": "reshape_5", "config": {"trainable": true, "target_shape": [3, 128], "name": "reshape_5"}}, {"inbound_nodes": [[["reshape_5", 0, 0, {}]]], "class_name": "LSTM", "name": "lstm_2", "config": {"recurrent_constraint": null, "trainable": true, "kernel_initializer": {"class_name": "VarianceScaling", "config": {"mode": "fan_avg", "scale": 1.0, "distribution": "uniform", "seed": null}}, "stateful": false, "recurrent_initializer": {"class_name": "Orthogonal", "config": {"gain": 1.0, "seed": null}}, "unroll": false, "use_bias": true, "unit_forget_bias": true, "name": "lstm_2", "bias_constraint": null, "dropout": 0.1, "go_backwards": false, "recurrent_activation": "hard_sigmoid", "activation": "tanh", "implementation": 0, "kernel_constraint": null, "recurrent_regularizer": null, "activity_regularizer": null, "units": 128, "kernel_regularizer": null, "bias_initializer": {"class_name": "Zeros", "config": {}}, "return_sequences": false, "bias_regularizer": null, "recurrent_dropout": 0.1, "return_state": false}}, {"inbound_nodes": [[["lstm_2", 0, 0, {}], ["lstm_1", 0, 0, {}]]], "class_name": "Concatenate", "name": "concatenate_10", "config": {"trainable": true, "name": "concatenate_10", "axis": -1}}, {"inbound_nodes": [[["concatenate_10", 0, 0, {}]]], "class_name": "Dense", "name": "dense_1", "config": {"trainable": true, "kernel_initializer": {"class_name": "VarianceScaling", "config": {"mode": "fan_avg", "scale": 1.0, "distribution": "uniform", "seed": null}}, "kernel_constraint": null, "bias_regularizer": null, "units": 2, "kernel_regularizer": null, "use_bias": true, "bias_initializer": {"class_name": "Zeros", "config": {}}, "name": "dense_1", "bias_constraint": null, "activity_regularizer": null, "activation": "linear"}}, {"inbound_nodes": [[["dense_1", 0, 0, {}]]], "class_name": "Activation", "name": "activation_1", "config": {"trainable": true, "name": "activation_1", "activation": "tanh"}}], "name": "model_1"}, "keras_version": "2.0.8"}